…
 - 5s - loss: 0.0586 - acc: 0.9782 - val_loss: 0.0752 - val_acc: 0.9742
Epoch 7/10
 - 4s - loss: 0.0527 - acc: 0.9806 - val_loss: 0.2331 - val_acc: 0.9203
Epoch 8/10
 - 4s - loss: 0.0450 - acc: 0.9843 - val_loss: 0.0790 - val_acc: 0.9731
Epoch 9/10
 - 4s - loss: 0.0389 - acc: 0.9861 - val_loss: 0.0714 - val_acc: 0.9747
Epoch 10/10
 - 4s - loss: 0.0317 - acc: 0.9894 - val_loss: 0.0592 - val_acc: 0.9788
Model saved to disk.
_________________________________________________________________
Layer (type)                 Output Shape              Param #   
=================================================================
conv2d_1 (Conv2D)            (None, 18, 18, 16)        448       
_________________________________________________________________
batch_normalization_1 (Batch (None, 18, 18, 16)        64        
_________________________________________________________________
activation_1 (Activation)    (None, 18, 18, 16)        0         
_________________________________________________________________
conv2d_2 (Conv2D)            (None, 16, 16, 32)        4640      
_________________________________________________________________
batch_normalization_2 (Batch (None, 16, 16, 32)        128       
_________________________________________________________________
activation_2 (Activation)    (None, 16, 16, 32)        0         
_________________________________________________________________
conv2d_3 (Conv2D)            (None, 14, 14, 64)        18496     
_________________________________________________________________
batch_normalization_3 (Batch (None, 14, 14, 64)        256       
_________________________________________________________________
activation_3 (Activation)    (None, 14, 14, 64)        0         
_________________________________________________________________
conv2d_4 (Conv2D)            (None, 12, 12, 64)        36928     
_________________________________________________________________
batch_normalization_4 (Batch (None, 12, 12, 64)        256       
_________________________________________________________________
activation_4 (Activation)    (None, 12, 12, 64)        0         
_________________________________________________________________
conv2d_5 (Conv2D)            (None, 10, 10, 64)        36928     
_________________________________________________________________
batch_normalization_5 (Batch (None, 10, 10, 64)        256       
_________________________________________________________________
activation_5 (Activation)    (None, 10, 10, 64)        0         
_________________________________________________________________
flatten_1 (Flatten)          (None, 6400)              0         
_________________________________________________________________
dropout_1 (Dropout)          (None, 6400)              0         
_________________________________________________________________
dense_1 (Dense)              (None, 1)                 6401      
=================================================================
Total params: 104,801
Trainable params: 104,321
Non-trainable params: 480
_________________________________________________________________
None
conv2d_1
conv2d_2
conv2d_3
conv2d_4
conv2d_5
pruning up to  5 % of the original model weights
Deleting 6/32 channels from layer: conv2d_2
Deleting 1/64 channels from layer: conv2d_3
Deleting 3/64 channels from layer: conv2d_4
Deleting 2/64 channels from layer: conv2d_5
_________________________________________________________________
Layer (type)                 Output Shape              Param #   
=================================================================
conv2d_1_input (InputLayer)  (None, 20, 20, 3)         0         
_________________________________________________________________
conv2d_1 (Conv2D)            (None, 18, 18, 16)        448       
_________________________________________________________________
batch_normalization_1 (Batch (None, 18, 18, 16)        64        
_________________________________________________________________
activation_1 (Activation)    (None, 18, 18, 16)        0         
_________________________________________________________________
conv2d_2 (Conv2D)            (None, 16, 16, 26)        3770      
_________________________________________________________________
batch_normalization_2 (Batch (None, 16, 16, 26)        104       
_________________________________________________________________
activation_2 (Activation)    (None, 16, 16, 26)        0         
_________________________________________________________________
conv2d_3 (Conv2D)            (None, 14, 14, 63)        14805     
_________________________________________________________________
batch_normalization_3 (Batch (None, 14, 14, 63)        252       
_________________________________________________________________
activation_3 (Activation)    (None, 14, 14, 63)        0         
_________________________________________________________________
conv2d_4 (Conv2D)            (None, 12, 12, 61)        34648     
_________________________________________________________________
batch_normalization_4 (Batch (None, 12, 12, 61)        244       
_________________________________________________________________
activation_4 (Activation)    (None, 12, 12, 61)        0         
_________________________________________________________________
conv2d_5 (Conv2D)            (None, 10, 10, 62)        34100     
_________________________________________________________________
batch_normalization_5 (Batch (None, 10, 10, 62)        248       
_________________________________________________________________
activation_5 (Activation)    (None, 10, 10, 62)        0         
_________________________________________________________________
flatten_1 (Flatten)          (None, 6200)              0         
_________________________________________________________________
dropout_1 (Dropout)          (None, 6200)              0         
_________________________________________________________________
dense_1 (Dense)              (None, 1)                 6201      
=================================================================
Total params: 94,884
Trainable params: 94,428
Non-trainable params: 456
_________________________________________________________________
None
Epoch 1/5

  1/400 [..............................] - ETA: 5:15 - loss: 0.0795 - acc: 0.9688
  6/400 [..............................] - ETA: 55s - loss: 0.0617 - acc: 0.9766 
 11/400 [..............................] - ETA: 31s - loss: 0.0696 - acc: 0.9744
…
400/400 [==============================] - 4s 11ms/step - loss: 0.0283 - acc: 0.9896 - val_loss: 0.0685 - val_acc: 0.9756
conv2d_1
conv2d_2
conv2d_3
conv2d_4
conv2d_5
pruning up to  10 % of the original model weights
Deleting 1/26 channels from layer: conv2d_2
Deleting 3/63 channels from layer: conv2d_3
Deleting 1/61 channels from layer: conv2d_4
Deleting 7/62 channels from layer: conv2d_5
_________________________________________________________________
Layer (type)                 Output Shape              Param #   
=================================================================
conv2d_1_input (InputLayer)  (None, 20, 20, 3)         0         
_________________________________________________________________
conv2d_1 (Conv2D)            (None, 18, 18, 16)        448       
_________________________________________________________________
batch_normalization_1 (Batch (None, 18, 18, 16)        64        
_________________________________________________________________
activation_1 (Activation)    (None, 18, 18, 16)        0         
_________________________________________________________________
conv2d_2 (Conv2D)            (None, 16, 16, 25)        3625      
_________________________________________________________________
batch_normalization_2 (Batch (None, 16, 16, 25)        100       
_________________________________________________________________
activation_2 (Activation)    (None, 16, 16, 25)        0         
_________________________________________________________________
conv2d_3 (Conv2D)            (None, 14, 14, 60)        13560     
_________________________________________________________________
batch_normalization_3 (Batch (None, 14, 14, 60)        240       
_________________________________________________________________
activation_3 (Activation)    (None, 14, 14, 60)        0         
_________________________________________________________________
conv2d_4 (Conv2D)            (None, 12, 12, 60)        32460     
_________________________________________________________________
batch_normalization_4 (Batch (None, 12, 12, 60)        240       
_________________________________________________________________
activation_4 (Activation)    (None, 12, 12, 60)        0         
_________________________________________________________________
conv2d_5 (Conv2D)            (None, 10, 10, 55)        29755     
_________________________________________________________________
batch_normalization_5 (Batch (None, 10, 10, 55)        220       
_________________________________________________________________
activation_5 (Activation)    (None, 10, 10, 55)        0         
_________________________________________________________________
flatten_1 (Flatten)          (None, 5500)              0         
_________________________________________________________________
dropout_1 (Dropout)          (None, 5500)              0         
_________________________________________________________________
dense_1 (Dense)              (None, 1)                 5501      
=================================================================
Total params: 86,213
Trainable params: 85,781
Non-trainable params: 432
_________________________________________________________________
None
Epoch 1/5

  1/400 [..............................] - ETA: 5:04 - loss: 0.0242 - acc: 0.9844
  6/400 [..............................] - ETA: 53s - loss: 0.0531 - acc: 0.9792 
 11/400 [..............................] - ETA: 30s - loss: 0.0484 - acc: 0.9830
…
400/400 [==============================] - 4s 11ms/step - loss: 0.0175 - acc: 0.9944 - val_loss: 0.0771 - val_acc: 0.9761
conv2d_1
conv2d_2
conv2d_3
conv2d_4
conv2d_5
pruning up to  15 % of the original model weights
Deleting 2/25 channels from layer: conv2d_2
Deleting 1/60 channels from layer: conv2d_3
Deleting 4/60 channels from layer: conv2d_4
Deleting 5/55 channels from layer: conv2d_5
_________________________________________________________________
Layer (type)                 Output Shape              Param #   
=================================================================
conv2d_1_input (InputLayer)  (None, 20, 20, 3)         0         
_________________________________________________________________
conv2d_1 (Conv2D)            (None, 18, 18, 16)        448       
_________________________________________________________________
batch_normalization_1 (Batch (None, 18, 18, 16)        64        
_________________________________________________________________
activation_1 (Activation)    (None, 18, 18, 16)        0         
_________________________________________________________________
conv2d_2 (Conv2D)            (None, 16, 16, 23)        3335      
_________________________________________________________________
batch_normalization_2 (Batch (None, 16, 16, 23)        92        
_________________________________________________________________
activation_2 (Activation)    (None, 16, 16, 23)        0         
_________________________________________________________________
conv2d_3 (Conv2D)            (None, 14, 14, 59)        12272     
_________________________________________________________________
batch_normalization_3 (Batch (None, 14, 14, 59)        236       
_________________________________________________________________
activation_3 (Activation)    (None, 14, 14, 59)        0         
_________________________________________________________________
conv2d_4 (Conv2D)            (None, 12, 12, 56)        29792     
_________________________________________________________________
batch_normalization_4 (Batch (None, 12, 12, 56)        224       
_________________________________________________________________
activation_4 (Activation)    (None, 12, 12, 56)        0         
_________________________________________________________________
conv2d_5 (Conv2D)            (None, 10, 10, 50)        25250     
_________________________________________________________________
batch_normalization_5 (Batch (None, 10, 10, 50)        200       
_________________________________________________________________
activation_5 (Activation)    (None, 10, 10, 50)        0         
_________________________________________________________________
flatten_1 (Flatten)          (None, 5000)              0         
_________________________________________________________________
dropout_1 (Dropout)          (None, 5000)              0         
_________________________________________________________________
dense_1 (Dense)              (None, 1)                 5001      
=================================================================
Total params: 76,914
Trainable params: 76,506
Non-trainable params: 408
_________________________________________________________________
None
Epoch 1/5

  1/400 [..............................] - ETA: 5:13 - loss: 0.0473 - acc: 0.9531
  6/400 [..............................] - ETA: 54s - loss: 0.0614 - acc: 0.9661 
 11/400 [..............................] - ETA: 31s - loss: 0.0439 - acc: 0.9773
…
400/400 [==============================] - 4s 11ms/step - loss: 0.0156 - acc: 0.9946 - val_loss: 0.0655 - val_acc: 0.9814
conv2d_1
conv2d_2
conv2d_3
conv2d_4
conv2d_5
pruning up to  20 % of the original model weights
Deleting 1/23 channels from layer: conv2d_2
Deleting 3/59 channels from layer: conv2d_3
Deleting 5/56 channels from layer: conv2d_4
Deleting 3/50 channels from layer: conv2d_5
_________________________________________________________________
Layer (type)                 Output Shape              Param #   
=================================================================
conv2d_1_input (InputLayer)  (None, 20, 20, 3)         0         
_________________________________________________________________
conv2d_1 (Conv2D)            (None, 18, 18, 16)        448       
_________________________________________________________________
batch_normalization_1 (Batch (None, 18, 18, 16)        64        
_________________________________________________________________
activation_1 (Activation)    (None, 18, 18, 16)        0         
_________________________________________________________________
conv2d_2 (Conv2D)            (None, 16, 16, 22)        3190      
_________________________________________________________________
batch_normalization_2 (Batch (None, 16, 16, 22)        88        
_________________________________________________________________
activation_2 (Activation)    (None, 16, 16, 22)        0         
_________________________________________________________________
conv2d_3 (Conv2D)            (None, 14, 14, 56)        11144     
_________________________________________________________________
batch_normalization_3 (Batch (None, 14, 14, 56)        224       
_________________________________________________________________
activation_3 (Activation)    (None, 14, 14, 56)        0         
_________________________________________________________________
conv2d_4 (Conv2D)            (None, 12, 12, 51)        25755     
_________________________________________________________________
batch_normalization_4 (Batch (None, 12, 12, 51)        204       
_________________________________________________________________
activation_4 (Activation)    (None, 12, 12, 51)        0         
_________________________________________________________________
conv2d_5 (Conv2D)            (None, 10, 10, 47)        21620     
_________________________________________________________________
batch_normalization_5 (Batch (None, 10, 10, 47)        188       
_________________________________________________________________
activation_5 (Activation)    (None, 10, 10, 47)        0         
_________________________________________________________________
flatten_1 (Flatten)          (None, 4700)              0         
_________________________________________________________________
dropout_1 (Dropout)          (None, 4700)              0         
_________________________________________________________________
dense_1 (Dense)              (None, 1)                 4701      
=================================================================
Total params: 67,626
Trainable params: 67,242
Non-trainable params: 384
_________________________________________________________________
None
Epoch 1/5

  1/400 [..............................] - ETA: 5:05 - loss: 0.0314 - acc: 1.0000
  7/400 [..............................] - ETA: 46s - loss: 0.0322 - acc: 0.9888 
 13/400 [..............................] - ETA: 26s - loss: 0.0299 - acc: 0.9892
…
400/400 [==============================] - 4s 11ms/step - loss: 0.0129 - acc: 0.9959 - val_loss: 0.0487 - val_acc: 0.9842
conv2d_1
conv2d_2
conv2d_3
conv2d_4
conv2d_5
pruning up to  25 % of the original model weights
Deleting 1/22 channels from layer: conv2d_2
Deleting 3/56 channels from layer: conv2d_3
Deleting 3/51 channels from layer: conv2d_4
Deleting 5/47 channels from layer: conv2d_5
_________________________________________________________________
Layer (type)                 Output Shape              Param #   
=================================================================
conv2d_1_input (InputLayer)  (None, 20, 20, 3)         0         
_________________________________________________________________
conv2d_1 (Conv2D)            (None, 18, 18, 16)        448       
_________________________________________________________________
batch_normalization_1 (Batch (None, 18, 18, 16)        64        
_________________________________________________________________
activation_1 (Activation)    (None, 18, 18, 16)        0         
_________________________________________________________________
conv2d_2 (Conv2D)            (None, 16, 16, 21)        3045      
_________________________________________________________________
batch_normalization_2 (Batch (None, 16, 16, 21)        84        
_________________________________________________________________
activation_2 (Activation)    (None, 16, 16, 21)        0         
_________________________________________________________________
conv2d_3 (Conv2D)            (None, 14, 14, 53)        10070     
_________________________________________________________________
batch_normalization_3 (Batch (None, 14, 14, 53)        212       
_________________________________________________________________
activation_3 (Activation)    (None, 14, 14, 53)        0         
_________________________________________________________________
conv2d_4 (Conv2D)            (None, 12, 12, 48)        22944     
_________________________________________________________________
batch_normalization_4 (Batch (None, 12, 12, 48)        192       
_________________________________________________________________
activation_4 (Activation)    (None, 12, 12, 48)        0         
_________________________________________________________________
conv2d_5 (Conv2D)            (None, 10, 10, 42)        18186     
_________________________________________________________________
batch_normalization_5 (Batch (None, 10, 10, 42)        168       
_________________________________________________________________
activation_5 (Activation)    (None, 10, 10, 42)        0         
_________________________________________________________________
flatten_1 (Flatten)          (None, 4200)              0         
_________________________________________________________________
dropout_1 (Dropout)          (None, 4200)              0         
_________________________________________________________________
dense_1 (Dense)              (None, 1)                 4201      
=================================================================
Total params: 59,614
Trainable params: 59,254
Non-trainable params: 360
_________________________________________________________________
None
Epoch 1/5

  1/400 [..............................] - ETA: 5:17 - loss: 0.0533 - acc: 0.9844
  6/400 [..............................] - ETA: 55s - loss: 0.0625 - acc: 0.9714 
 11/400 [..............................] - ETA: 31s - loss: 0.0547 - acc: 0.9773
…
400/400 [==============================] - 4s 11ms/step - loss: 0.0127 - acc: 0.9958 - val_loss: 0.0505 - val_acc: 0.9845
conv2d_1
conv2d_2
conv2d_3
conv2d_4
conv2d_5
pruning up to  30 % of the original model weights
Deleting 1/16 channels from layer: conv2d_1
Deleting 2/21 channels from layer: conv2d_2
Deleting 4/53 channels from layer: conv2d_3
Deleting 4/48 channels from layer: conv2d_4
Deleting 1/42 channels from layer: conv2d_5
_________________________________________________________________
Layer (type)                 Output Shape              Param #   
=================================================================
conv2d_1_input (InputLayer)  (None, 20, 20, 3)         0         
_________________________________________________________________
conv2d_1 (Conv2D)            (None, 18, 18, 15)        420       
_________________________________________________________________
batch_normalization_1 (Batch (None, 18, 18, 15)        60        
_________________________________________________________________
activation_1 (Activation)    (None, 18, 18, 15)        0         
_________________________________________________________________
conv2d_2 (Conv2D)            (None, 16, 16, 19)        2584      
_________________________________________________________________
batch_normalization_2 (Batch (None, 16, 16, 19)        76        
_________________________________________________________________
activation_2 (Activation)    (None, 16, 16, 19)        0         
_________________________________________________________________
conv2d_3 (Conv2D)            (None, 14, 14, 49)        8428      
_________________________________________________________________
batch_normalization_3 (Batch (None, 14, 14, 49)        196       
_________________________________________________________________
activation_3 (Activation)    (None, 14, 14, 49)        0         
_________________________________________________________________
conv2d_4 (Conv2D)            (None, 12, 12, 44)        19448     
_________________________________________________________________
batch_normalization_4 (Batch (None, 12, 12, 44)        176       
_________________________________________________________________
activation_4 (Activation)    (None, 12, 12, 44)        0         
_________________________________________________________________
conv2d_5 (Conv2D)            (None, 10, 10, 41)        16277     
_________________________________________________________________
batch_normalization_5 (Batch (None, 10, 10, 41)        164       
_________________________________________________________________
activation_5 (Activation)    (None, 10, 10, 41)        0         
_________________________________________________________________
flatten_1 (Flatten)          (None, 4100)              0         
_________________________________________________________________
dropout_1 (Dropout)          (None, 4100)              0         
_________________________________________________________________
dense_1 (Dense)              (None, 1)                 4101      
=================================================================
Total params: 51,930
Trainable params: 51,594
Non-trainable params: 336
_________________________________________________________________
None
Epoch 1/5

  1/400 [..............................] - ETA: 5:12 - loss: 0.4177 - acc: 0.8906
  7/400 [..............................] - ETA: 47s - loss: 0.3934 - acc: 0.9040 
 13/400 [..............................] - ETA: 26s - loss: 0.2464 - acc: 0.9363
…
395/400 [============================>.] - ETA: 0s - loss: 0.0181 - acc: 0.9929
400/400 [==============================] - 4s 10ms/step - loss: 0.0180 - acc: 0.9930 - val_loss: 0.0586 - val_acc: 0.9828
conv2d_1
conv2d_2
conv2d_3
conv2d_4
conv2d_5
pruning up to  35 % of the original model weights
Deleting 5/49 channels from layer: conv2d_3
Deleting 2/44 channels from layer: conv2d_4
Deleting 5/41 channels from layer: conv2d_5
_________________________________________________________________
Layer (type)                 Output Shape              Param #   
=================================================================
conv2d_1_input (InputLayer)  (None, 20, 20, 3)         0         
_________________________________________________________________
conv2d_1 (Conv2D)            (None, 18, 18, 15)        420       
_________________________________________________________________
batch_normalization_1 (Batch (None, 18, 18, 15)        60        
_________________________________________________________________
activation_1 (Activation)    (None, 18, 18, 15)        0         
_________________________________________________________________
conv2d_2 (Conv2D)            (None, 16, 16, 19)        2584      
_________________________________________________________________
batch_normalization_2 (Batch (None, 16, 16, 19)        76        
_________________________________________________________________
activation_2 (Activation)    (None, 16, 16, 19)        0         
_________________________________________________________________
conv2d_3 (Conv2D)            (None, 14, 14, 44)        7568      
_________________________________________________________________
batch_normalization_3 (Batch (None, 14, 14, 44)        176       
_________________________________________________________________
activation_3 (Activation)    (None, 14, 14, 44)        0         
_________________________________________________________________
conv2d_4 (Conv2D)            (None, 12, 12, 42)        16674     
_________________________________________________________________
batch_normalization_4 (Batch (None, 12, 12, 42)        168       
_________________________________________________________________
activation_4 (Activation)    (None, 12, 12, 42)        0         
_________________________________________________________________
conv2d_5 (Conv2D)            (None, 10, 10, 36)        13644     
_________________________________________________________________
batch_normalization_5 (Batch (None, 10, 10, 36)        144       
_________________________________________________________________
activation_5 (Activation)    (None, 10, 10, 36)        0         
_________________________________________________________________
flatten_1 (Flatten)          (None, 3600)              0         
_________________________________________________________________
dropout_1 (Dropout)          (None, 3600)              0         
_________________________________________________________________
dense_1 (Dense)              (None, 1)                 3601      
=================================================================
Total params: 45,115
Trainable params: 44,803
Non-trainable params: 312
_________________________________________________________________
None
Epoch 1/5

  1/400 [..............................] - ETA: 4:57 - loss: 0.0353 - acc: 0.9844
  7/400 [..............................] - ETA: 45s - loss: 0.0321 - acc: 0.9866 
 13/400 [..............................] - ETA: 25s - loss: 0.0315 - acc: 0.9868
…
394/400 [============================>.] - ETA: 0s - loss: 0.0142 - acc: 0.9952
400/400 [==============================] - 4s 10ms/step - loss: 0.0142 - acc: 0.9951 - val_loss: 0.0739 - val_acc: 0.9792
conv2d_1
conv2d_2
conv2d_3
conv2d_4
conv2d_5
pruning up to  40 % of the original model weights
Deleting 3/44 channels from layer: conv2d_3
Deleting 1/42 channels from layer: conv2d_4
Deleting 8/36 channels from layer: conv2d_5
_________________________________________________________________
Layer (type)                 Output Shape              Param #   
=================================================================
conv2d_1_input (InputLayer)  (None, 20, 20, 3)         0         
_________________________________________________________________
conv2d_1 (Conv2D)            (None, 18, 18, 15)        420       
_________________________________________________________________
batch_normalization_1 (Batch (None, 18, 18, 15)        60        
_________________________________________________________________
activation_1 (Activation)    (None, 18, 18, 15)        0         
_________________________________________________________________
conv2d_2 (Conv2D)            (None, 16, 16, 19)        2584      
_________________________________________________________________
batch_normalization_2 (Batch (None, 16, 16, 19)        76        
_________________________________________________________________
activation_2 (Activation)    (None, 16, 16, 19)        0         
_________________________________________________________________
conv2d_3 (Conv2D)            (None, 14, 14, 41)        7052      
_________________________________________________________________
batch_normalization_3 (Batch (None, 14, 14, 41)        164       
_________________________________________________________________
activation_3 (Activation)    (None, 14, 14, 41)        0         
_________________________________________________________________
conv2d_4 (Conv2D)            (None, 12, 12, 41)        15170     
_________________________________________________________________
batch_normalization_4 (Batch (None, 12, 12, 41)        164       
_________________________________________________________________
activation_4 (Activation)    (None, 12, 12, 41)        0         
_________________________________________________________________
conv2d_5 (Conv2D)            (None, 10, 10, 28)        10360     
_________________________________________________________________
batch_normalization_5 (Batch (None, 10, 10, 28)        112       
_________________________________________________________________
activation_5 (Activation)    (None, 10, 10, 28)        0         
_________________________________________________________________
flatten_1 (Flatten)          (None, 2800)              0         
_________________________________________________________________
dropout_1 (Dropout)          (None, 2800)              0         
_________________________________________________________________
dense_1 (Dense)              (None, 1)                 2801      
=================================================================
Total params: 38,963
Trainable params: 38,675
Non-trainable params: 288
_________________________________________________________________
None
Epoch 1/5

  1/400 [..............................] - ETA: 5:03 - loss: 0.1206 - acc: 0.9688
  7/400 [..............................] - ETA: 45s - loss: 0.0485 - acc: 0.9888 
 13/400 [..............................] - ETA: 26s - loss: 0.0387 - acc: 0.9904
…
400/400 [==============================] - 4s 10ms/step - loss: 0.0141 - acc: 0.9953 - val_loss: 0.0498 - val_acc: 0.9842
conv2d_1
conv2d_2
conv2d_3
conv2d_4
conv2d_5
pruning up to  45 % of the original model weights
Deleting 2/15 channels from layer: conv2d_1
Deleting 1/19 channels from layer: conv2d_2
Deleting 4/41 channels from layer: conv2d_3
Deleting 3/41 channels from layer: conv2d_4
Deleting 2/28 channels from layer: conv2d_5
_________________________________________________________________
Layer (type)                 Output Shape              Param #   
=================================================================
conv2d_1_input (InputLayer)  (None, 20, 20, 3)         0         
_________________________________________________________________
conv2d_1 (Conv2D)            (None, 18, 18, 13)        364       
_________________________________________________________________
batch_normalization_1 (Batch (None, 18, 18, 13)        52        
_________________________________________________________________
activation_1 (Activation)    (None, 18, 18, 13)        0         
_________________________________________________________________
conv2d_2 (Conv2D)            (None, 16, 16, 18)        2124      
_________________________________________________________________
batch_normalization_2 (Batch (None, 16, 16, 18)        72        
_________________________________________________________________
activation_2 (Activation)    (None, 16, 16, 18)        0         
_________________________________________________________________
conv2d_3 (Conv2D)            (None, 14, 14, 37)        6031      
_________________________________________________________________
batch_normalization_3 (Batch (None, 14, 14, 37)        148       
_________________________________________________________________
activation_3 (Activation)    (None, 14, 14, 37)        0         
_________________________________________________________________
conv2d_4 (Conv2D)            (None, 12, 12, 38)        12692     
_________________________________________________________________
batch_normalization_4 (Batch (None, 12, 12, 38)        152       
_________________________________________________________________
activation_4 (Activation)    (None, 12, 12, 38)        0         
_________________________________________________________________
conv2d_5 (Conv2D)            (None, 10, 10, 26)        8918      
_________________________________________________________________
batch_normalization_5 (Batch (None, 10, 10, 26)        104       
_________________________________________________________________
activation_5 (Activation)    (None, 10, 10, 26)        0         
_________________________________________________________________
flatten_1 (Flatten)          (None, 2600)              0         
_________________________________________________________________
dropout_1 (Dropout)          (None, 2600)              0         
_________________________________________________________________
dense_1 (Dense)              (None, 1)                 2601      
=================================================================
Total params: 33,258
Trainable params: 32,994
Non-trainable params: 264
_________________________________________________________________
None
Epoch 1/5

  1/400 [..............................] - ETA: 5:16 - loss: 0.1350 - acc: 0.9375
  7/400 [..............................] - ETA: 47s - loss: 0.1096 - acc: 0.9621 
 13/400 [..............................] - ETA: 26s - loss: 0.0996 - acc: 0.9603
…
400/400 [==============================] - 4s 10ms/step - loss: 0.0201 - acc: 0.9930 - val_loss: 0.0534 - val_acc: 0.9844
conv2d_1
conv2d_2
conv2d_3
conv2d_4
conv2d_5
pruning up to  50 % of the original model weights
Deleting 2/13 channels from layer: conv2d_1
Deleting 1/18 channels from layer: conv2d_2
Deleting 3/37 channels from layer: conv2d_3
Deleting 4/38 channels from layer: conv2d_4
Deleting 2/26 channels from layer: conv2d_5
_________________________________________________________________
Layer (type)                 Output Shape              Param #   
=================================================================
conv2d_1_input (InputLayer)  (None, 20, 20, 3)         0         
_________________________________________________________________
conv2d_1 (Conv2D)            (None, 18, 18, 11)        308       
_________________________________________________________________
batch_normalization_1 (Batch (None, 18, 18, 11)        44        
_________________________________________________________________
activation_1 (Activation)    (None, 18, 18, 11)        0         
_________________________________________________________________
conv2d_2 (Conv2D)            (None, 16, 16, 17)        1700      
_________________________________________________________________
batch_normalization_2 (Batch (None, 16, 16, 17)        68        
_________________________________________________________________
activation_2 (Activation)    (None, 16, 16, 17)        0         
_________________________________________________________________
conv2d_3 (Conv2D)            (None, 14, 14, 34)        5236      
_________________________________________________________________
batch_normalization_3 (Batch (None, 14, 14, 34)        136       
_________________________________________________________________
activation_3 (Activation)    (None, 14, 14, 34)        0         
_________________________________________________________________
conv2d_4 (Conv2D)            (None, 12, 12, 34)        10438     
_________________________________________________________________
batch_normalization_4 (Batch (None, 12, 12, 34)        136       
_________________________________________________________________
activation_4 (Activation)    (None, 12, 12, 34)        0         
_________________________________________________________________
conv2d_5 (Conv2D)            (None, 10, 10, 24)        7368      
_________________________________________________________________
batch_normalization_5 (Batch (None, 10, 10, 24)        96        
_________________________________________________________________
activation_5 (Activation)    (None, 10, 10, 24)        0         
_________________________________________________________________
flatten_1 (Flatten)          (None, 2400)              0         
_________________________________________________________________
dropout_1 (Dropout)          (None, 2400)              0         
_________________________________________________________________
dense_1 (Dense)              (None, 1)                 2401      
=================================================================
Total params: 27,931
Trainable params: 27,691
Non-trainable params: 240
_________________________________________________________________
None
Epoch 1/5

  1/400 [..............................] - ETA: 5:05 - loss: 0.5855 - acc: 0.8281
  7/400 [..............................] - ETA: 46s - loss: 0.3320 - acc: 0.9062 
 13/400 [..............................] - ETA: 26s - loss: 0.2416 - acc: 0.9231
…
400/400 [==============================] - 4s 10ms/step - loss: 0.0218 - acc: 0.9929 - val_loss: 0.0635 - val_acc: 0.9819
conv2d_1
conv2d_2
conv2d_3
conv2d_4
conv2d_5
pruning up to  55 % of the original model weights
Deleting 2/11 channels from layer: conv2d_1
Deleting 1/34 channels from layer: conv2d_3
Deleting 6/34 channels from layer: conv2d_4
Deleting 3/24 channels from layer: conv2d_5
_________________________________________________________________
Layer (type)                 Output Shape              Param #   
=================================================================
conv2d_1_input (InputLayer)  (None, 20, 20, 3)         0         
_________________________________________________________________
conv2d_1 (Conv2D)            (None, 18, 18, 9)         252       
_________________________________________________________________
batch_normalization_1 (Batch (None, 18, 18, 9)         36        
_________________________________________________________________
activation_1 (Activation)    (None, 18, 18, 9)         0         
_________________________________________________________________
conv2d_2 (Conv2D)            (None, 16, 16, 17)        1394      
_________________________________________________________________
batch_normalization_2 (Batch (None, 16, 16, 17)        68        
_________________________________________________________________
activation_2 (Activation)    (None, 16, 16, 17)        0         
_________________________________________________________________
conv2d_3 (Conv2D)            (None, 14, 14, 33)        5082      
_________________________________________________________________
batch_normalization_3 (Batch (None, 14, 14, 33)        132       
_________________________________________________________________
activation_3 (Activation)    (None, 14, 14, 33)        0         
_________________________________________________________________
conv2d_4 (Conv2D)            (None, 12, 12, 28)        8344      
_________________________________________________________________
batch_normalization_4 (Batch (None, 12, 12, 28)        112       
_________________________________________________________________
activation_4 (Activation)    (None, 12, 12, 28)        0         
_________________________________________________________________
conv2d_5 (Conv2D)            (None, 10, 10, 21)        5313      
_________________________________________________________________
batch_normalization_5 (Batch (None, 10, 10, 21)        84        
_________________________________________________________________
activation_5 (Activation)    (None, 10, 10, 21)        0         
_________________________________________________________________
flatten_1 (Flatten)          (None, 2100)              0         
_________________________________________________________________
dropout_1 (Dropout)          (None, 2100)              0         
_________________________________________________________________
dense_1 (Dense)              (None, 1)                 2101      
=================================================================
Total params: 22,918
Trainable params: 22,702
Non-trainable params: 216
_________________________________________________________________
None
Epoch 1/5

  1/400 [..............................] - ETA: 5:17 - loss: 0.3350 - acc: 0.9062
  7/400 [..............................] - ETA: 47s - loss: 0.4508 - acc: 0.8549 
 13/400 [..............................] - ETA: 26s - loss: 0.3690 - acc: 0.8774
…
397/400 [============================>.] - ETA: 0s - loss: 0.0247 - acc: 0.9912
400/400 [==============================] - 4s 10ms/step - loss: 0.0246 - acc: 0.9912 - val_loss: 0.0867 - val_acc: 0.9720
conv2d_1
conv2d_2
conv2d_3
conv2d_4
conv2d_5
pruning up to  60 % of the original model weights
Deleting 6/33 channels from layer: conv2d_3
Deleting 4/28 channels from layer: conv2d_4
Deleting 2/21 channels from layer: conv2d_5
_________________________________________________________________
Layer (type)                 Output Shape              Param #   
=================================================================
conv2d_1_input (InputLayer)  (None, 20, 20, 3)         0         
_________________________________________________________________
conv2d_1 (Conv2D)            (None, 18, 18, 9)         252       
_________________________________________________________________
batch_normalization_1 (Batch (None, 18, 18, 9)         36        
_________________________________________________________________
activation_1 (Activation)    (None, 18, 18, 9)         0         
_________________________________________________________________
conv2d_2 (Conv2D)            (None, 16, 16, 17)        1394      
_________________________________________________________________
batch_normalization_2 (Batch (None, 16, 16, 17)        68        
_________________________________________________________________
activation_2 (Activation)    (None, 16, 16, 17)        0         
_________________________________________________________________
conv2d_3 (Conv2D)            (None, 14, 14, 27)        4158      
_________________________________________________________________
batch_normalization_3 (Batch (None, 14, 14, 27)        108       
_________________________________________________________________
activation_3 (Activation)    (None, 14, 14, 27)        0         
_________________________________________________________________
conv2d_4 (Conv2D)            (None, 12, 12, 24)        5856      
_________________________________________________________________
batch_normalization_4 (Batch (None, 12, 12, 24)        96        
_________________________________________________________________
activation_4 (Activation)    (None, 12, 12, 24)        0         
_________________________________________________________________
conv2d_5 (Conv2D)            (None, 10, 10, 19)        4123      
_________________________________________________________________
batch_normalization_5 (Batch (None, 10, 10, 19)        76        
_________________________________________________________________
activation_5 (Activation)    (None, 10, 10, 19)        0         
_________________________________________________________________
flatten_1 (Flatten)          (None, 1900)              0         
_________________________________________________________________
dropout_1 (Dropout)          (None, 1900)              0         
_________________________________________________________________
dense_1 (Dense)              (None, 1)                 1901      
=================================================================
Total params: 18,068
Trainable params: 17,876
Non-trainable params: 192
_________________________________________________________________
None
Epoch 1/5

  1/400 [..............................] - ETA: 4:54 - loss: 0.1973 - acc: 0.9062
  7/400 [..............................] - ETA: 44s - loss: 0.1944 - acc: 0.9375 
 13/400 [..............................] - ETA: 25s - loss: 0.1423 - acc: 0.9531
…
400/400 [==============================] - 4s 9ms/step - loss: 0.0252 - acc: 0.9908 - val_loss: 0.1081 - val_acc: 0.9652
conv2d_1
conv2d_2
conv2d_3
conv2d_4
conv2d_5
pruning up to  65 % of the original model weights
Deleting 2/9 channels from layer: conv2d_1
Deleting 5/27 channels from layer: conv2d_3
Deleting 3/24 channels from layer: conv2d_4
Deleting 2/19 channels from layer: conv2d_5
_________________________________________________________________
Layer (type)                 Output Shape              Param #   
=================================================================
conv2d_1_input (InputLayer)  (None, 20, 20, 3)         0         
_________________________________________________________________
conv2d_1 (Conv2D)            (None, 18, 18, 7)         196       
_________________________________________________________________
batch_normalization_1 (Batch (None, 18, 18, 7)         28        
_________________________________________________________________
activation_1 (Activation)    (None, 18, 18, 7)         0         
_________________________________________________________________
conv2d_2 (Conv2D)            (None, 16, 16, 17)        1088      
_________________________________________________________________
batch_normalization_2 (Batch (None, 16, 16, 17)        68        
_________________________________________________________________
activation_2 (Activation)    (None, 16, 16, 17)        0         
_________________________________________________________________
conv2d_3 (Conv2D)            (None, 14, 14, 22)        3388      
_________________________________________________________________
batch_normalization_3 (Batch (None, 14, 14, 22)        88        
_________________________________________________________________
activation_3 (Activation)    (None, 14, 14, 22)        0         
_________________________________________________________________
conv2d_4 (Conv2D)            (None, 12, 12, 21)        4179      
_________________________________________________________________
batch_normalization_4 (Batch (None, 12, 12, 21)        84        
_________________________________________________________________
activation_4 (Activation)    (None, 12, 12, 21)        0         
_________________________________________________________________
conv2d_5 (Conv2D)            (None, 10, 10, 17)        3230      
_________________________________________________________________
batch_normalization_5 (Batch (None, 10, 10, 17)        68        
_________________________________________________________________
activation_5 (Activation)    (None, 10, 10, 17)        0         
_________________________________________________________________
flatten_1 (Flatten)          (None, 1700)              0         
_________________________________________________________________
dropout_1 (Dropout)          (None, 1700)              0         
_________________________________________________________________
dense_1 (Dense)              (None, 1)                 1701      
=================================================================
Total params: 14,118
Trainable params: 13,950
Non-trainable params: 168
_________________________________________________________________
None
Epoch 1/5

  1/400 [..............................] - ETA: 5:11 - loss: 1.1622 - acc: 0.7812
  7/400 [..............................] - ETA: 46s - loss: 0.7165 - acc: 0.8304 
 13/400 [..............................] - ETA: 26s - loss: 0.5160 - acc: 0.8690
…
400/400 [==============================] - 4s 9ms/step - loss: 0.0347 - acc: 0.9871 - val_loss: 0.0564 - val_acc: 0.9809
conv2d_1
conv2d_2
conv2d_3
conv2d_4
conv2d_5
pruning up to  70 % of the original model weights
Deleting 2/7 channels from layer: conv2d_1
Deleting 1/17 channels from layer: conv2d_2
Deleting 4/22 channels from layer: conv2d_3
Deleting 1/21 channels from layer: conv2d_4
Deleting 4/17 channels from layer: conv2d_5
_________________________________________________________________
Layer (type)                 Output Shape              Param #   
=================================================================
conv2d_1_input (InputLayer)  (None, 20, 20, 3)         0         
_________________________________________________________________
conv2d_1 (Conv2D)            (None, 18, 18, 5)         140       
_________________________________________________________________
batch_normalization_1 (Batch (None, 18, 18, 5)         20        
_________________________________________________________________
activation_1 (Activation)    (None, 18, 18, 5)         0         
_________________________________________________________________
conv2d_2 (Conv2D)            (None, 16, 16, 16)        736       
_________________________________________________________________
batch_normalization_2 (Batch (None, 16, 16, 16)        64        
_________________________________________________________________
activation_2 (Activation)    (None, 16, 16, 16)        0         
_________________________________________________________________
conv2d_3 (Conv2D)            (None, 14, 14, 18)        2610      
_________________________________________________________________
batch_normalization_3 (Batch (None, 14, 14, 18)        72        
_________________________________________________________________
activation_3 (Activation)    (None, 14, 14, 18)        0         
_________________________________________________________________
conv2d_4 (Conv2D)            (None, 12, 12, 20)        3260      
_________________________________________________________________
batch_normalization_4 (Batch (None, 12, 12, 20)        80        
_________________________________________________________________
activation_4 (Activation)    (None, 12, 12, 20)        0         
_________________________________________________________________
conv2d_5 (Conv2D)            (None, 10, 10, 13)        2353      
_________________________________________________________________
batch_normalization_5 (Batch (None, 10, 10, 13)        52        
_________________________________________________________________
activation_5 (Activation)    (None, 10, 10, 13)        0         
_________________________________________________________________
flatten_1 (Flatten)          (None, 1300)              0         
_________________________________________________________________
dropout_1 (Dropout)          (None, 1300)              0         
_________________________________________________________________
dense_1 (Dense)              (None, 1)                 1301      
=================================================================
Total params: 10,688
Trainable params: 10,544
Non-trainable params: 144
_________________________________________________________________
None
Epoch 1/5

  1/400 [..............................] - ETA: 4:59 - loss: 0.2718 - acc: 0.8906
  7/400 [..............................] - ETA: 45s - loss: 0.2720 - acc: 0.8973 
 13/400 [..............................] - ETA: 25s - loss: 0.2245 - acc: 0.9147
…
400/400 [==============================] - 4s 9ms/step - loss: 0.0448 - acc: 0.9841 - val_loss: 0.0775 - val_acc: 0.9733
conv2d_1
conv2d_2
conv2d_3
conv2d_4
conv2d_5
pruning up to  75 % of the original model weights
Deleting 1/16 channels from layer: conv2d_2
Deleting 2/18 channels from layer: conv2d_3
Deleting 5/20 channels from layer: conv2d_4
Deleting 4/13 channels from layer: conv2d_5
_________________________________________________________________
Layer (type)                 Output Shape              Param #   
=================================================================
conv2d_1_input (InputLayer)  (None, 20, 20, 3)         0         
_________________________________________________________________
conv2d_1 (Conv2D)            (None, 18, 18, 5)         140       
_________________________________________________________________
batch_normalization_1 (Batch (None, 18, 18, 5)         20        
_________________________________________________________________
activation_1 (Activation)    (None, 18, 18, 5)         0         
_________________________________________________________________
conv2d_2 (Conv2D)            (None, 16, 16, 15)        690       
_________________________________________________________________
batch_normalization_2 (Batch (None, 16, 16, 15)        60        
_________________________________________________________________
activation_2 (Activation)    (None, 16, 16, 15)        0         
_________________________________________________________________
conv2d_3 (Conv2D)            (None, 14, 14, 16)        2176      
_________________________________________________________________
batch_normalization_3 (Batch (None, 14, 14, 16)        64        
_________________________________________________________________
activation_3 (Activation)    (None, 14, 14, 16)        0         
_________________________________________________________________
conv2d_4 (Conv2D)            (None, 12, 12, 15)        2175      
_________________________________________________________________
batch_normalization_4 (Batch (None, 12, 12, 15)        60        
_________________________________________________________________
activation_4 (Activation)    (None, 12, 12, 15)        0         
_________________________________________________________________
conv2d_5 (Conv2D)            (None, 10, 10, 9)         1224      
_________________________________________________________________
batch_normalization_5 (Batch (None, 10, 10, 9)         36        
_________________________________________________________________
activation_5 (Activation)    (None, 10, 10, 9)         0         
_________________________________________________________________
flatten_1 (Flatten)          (None, 900)               0         
_________________________________________________________________
dropout_1 (Dropout)          (None, 900)               0         
_________________________________________________________________
dense_1 (Dense)              (None, 1)                 901       
=================================================================
Total params: 7,546
Trainable params: 7,426
Non-trainable params: 120
_________________________________________________________________
None
Epoch 1/5

  1/400 [..............................] - ETA: 4:54 - loss: 0.6568 - acc: 0.8125
  7/400 [..............................] - ETA: 44s - loss: 0.3298 - acc: 0.8705 
 13/400 [..............................] - ETA: 25s - loss: 0.2517 - acc: 0.8978
…
394/400 [============================>.] - ETA: 0s - loss: 0.0494 - acc: 0.9817
400/400 [==============================] - 4s 9ms/step - loss: 0.0495 - acc: 0.9816 - val_loss: 0.0721 - val_acc: 0.9756
conv2d_1
conv2d_2
conv2d_3
conv2d_4
conv2d_5
pruning up to  80 % of the original model weights
Deleting 2/16 channels from layer: conv2d_3
Deleting 6/15 channels from layer: conv2d_4
Deleting 4/9 channels from layer: conv2d_5
_________________________________________________________________
Layer (type)                 Output Shape              Param #   
=================================================================
conv2d_1_input (InputLayer)  (None, 20, 20, 3)         0         
_________________________________________________________________
conv2d_1 (Conv2D)            (None, 18, 18, 5)         140       
_________________________________________________________________
batch_normalization_1 (Batch (None, 18, 18, 5)         20        
_________________________________________________________________
activation_1 (Activation)    (None, 18, 18, 5)         0         
_________________________________________________________________
conv2d_2 (Conv2D)            (None, 16, 16, 15)        690       
_________________________________________________________________
batch_normalization_2 (Batch (None, 16, 16, 15)        60        
_________________________________________________________________
activation_2 (Activation)    (None, 16, 16, 15)        0         
_________________________________________________________________
conv2d_3 (Conv2D)            (None, 14, 14, 14)        1904      
_________________________________________________________________
batch_normalization_3 (Batch (None, 14, 14, 14)        56        
_________________________________________________________________
activation_3 (Activation)    (None, 14, 14, 14)        0         
_________________________________________________________________
conv2d_4 (Conv2D)            (None, 12, 12, 9)         1143      
_________________________________________________________________
batch_normalization_4 (Batch (None, 12, 12, 9)         36        
_________________________________________________________________
activation_4 (Activation)    (None, 12, 12, 9)         0         
_________________________________________________________________
conv2d_5 (Conv2D)            (None, 10, 10, 5)         410       
_________________________________________________________________
batch_normalization_5 (Batch (None, 10, 10, 5)         20        
_________________________________________________________________
activation_5 (Activation)    (None, 10, 10, 5)         0         
_________________________________________________________________
flatten_1 (Flatten)          (None, 500)               0         
_________________________________________________________________
dropout_1 (Dropout)          (None, 500)               0         
_________________________________________________________________
dense_1 (Dense)              (None, 1)                 501       
=================================================================
Total params: 4,980
Trainable params: 4,884
Non-trainable params: 96
_________________________________________________________________
None
Epoch 1/5

  1/400 [..............................] - ETA: 4:57 - loss: 0.1715 - acc: 0.9219
  7/400 [..............................] - ETA: 44s - loss: 0.2175 - acc: 0.9174 
 13/400 [..............................] - ETA: 25s - loss: 0.2160 - acc: 0.9099
…
400/400 [==============================] - 4s 9ms/step - loss: 0.0625 - acc: 0.9776 - val_loss: 0.0887 - val_acc: 0.9697
conv2d_1
conv2d_2
conv2d_3
conv2d_4
conv2d_5
pruning up to  85 % of the original model weights
Deleting 1/15 channels from layer: conv2d_2
Deleting 4/14 channels from layer: conv2d_3
Deleting 5/9 channels from layer: conv2d_4
Deleting 2/5 channels from layer: conv2d_5
_________________________________________________________________
Layer (type)                 Output Shape              Param #   
=================================================================
conv2d_1_input (InputLayer)  (None, 20, 20, 3)         0         
_________________________________________________________________
conv2d_1 (Conv2D)            (None, 18, 18, 5)         140       
_________________________________________________________________
batch_normalization_1 (Batch (None, 18, 18, 5)         20        
_________________________________________________________________
activation_1 (Activation)    (None, 18, 18, 5)         0         
_________________________________________________________________
conv2d_2 (Conv2D)            (None, 16, 16, 14)        644       
_________________________________________________________________
batch_normalization_2 (Batch (None, 16, 16, 14)        56        
_________________________________________________________________
activation_2 (Activation)    (None, 16, 16, 14)        0         
_________________________________________________________________
conv2d_3 (Conv2D)            (None, 14, 14, 10)        1270      
_________________________________________________________________
batch_normalization_3 (Batch (None, 14, 14, 10)        40        
_________________________________________________________________
activation_3 (Activation)    (None, 14, 14, 10)        0         
_________________________________________________________________
conv2d_4 (Conv2D)            (None, 12, 12, 4)         364       
_________________________________________________________________
batch_normalization_4 (Batch (None, 12, 12, 4)         16        
_________________________________________________________________
activation_4 (Activation)    (None, 12, 12, 4)         0         
_________________________________________________________________
conv2d_5 (Conv2D)            (None, 10, 10, 3)         111       
_________________________________________________________________
batch_normalization_5 (Batch (None, 10, 10, 3)         12        
_________________________________________________________________
activation_5 (Activation)    (None, 10, 10, 3)         0         
_________________________________________________________________
flatten_1 (Flatten)          (None, 300)               0         
_________________________________________________________________
dropout_1 (Dropout)          (None, 300)               0         
_________________________________________________________________
dense_1 (Dense)              (None, 1)                 301       
=================================================================
Total params: 2,974
Trainable params: 2,902
Non-trainable params: 72
_________________________________________________________________
None
Epoch 1/5

  1/400 [..............................] - ETA: 4:58 - loss: 2.3433 - acc: 0.6094
  7/400 [..............................] - ETA: 45s - loss: 1.6424 - acc: 0.6964 
 13/400 [..............................] - ETA: 25s - loss: 1.3725 - acc: 0.7272
…
