…
 - 4s - loss: 0.0067 - acc: 0.9987 - val_loss: 0.0424 - val_acc: 0.9872
Epoch 47/50
 - 4s - loss: 0.0066 - acc: 0.9986 - val_loss: 0.0420 - val_acc: 0.9866
Epoch 48/50
 - 4s - loss: 0.0065 - acc: 0.9984 - val_loss: 0.0422 - val_acc: 0.9869
Epoch 49/50
 - 4s - loss: 0.0060 - acc: 0.9991 - val_loss: 0.0430 - val_acc: 0.9861
Epoch 50/50
 - 4s - loss: 0.0062 - acc: 0.9987 - val_loss: 0.0426 - val_acc: 0.9862
Model saved to disk.
_________________________________________________________________
Layer (type)                 Output Shape              Param #   
=================================================================
conv2d_1 (Conv2D)            (None, 18, 18, 16)        448       
_________________________________________________________________
batch_normalization_1 (Batch (None, 18, 18, 16)        64        
_________________________________________________________________
activation_1 (Activation)    (None, 18, 18, 16)        0         
_________________________________________________________________
conv2d_2 (Conv2D)            (None, 16, 16, 32)        4640      
_________________________________________________________________
batch_normalization_2 (Batch (None, 16, 16, 32)        128       
_________________________________________________________________
activation_2 (Activation)    (None, 16, 16, 32)        0         
_________________________________________________________________
conv2d_3 (Conv2D)            (None, 14, 14, 64)        18496     
_________________________________________________________________
batch_normalization_3 (Batch (None, 14, 14, 64)        256       
_________________________________________________________________
activation_3 (Activation)    (None, 14, 14, 64)        0         
_________________________________________________________________
conv2d_4 (Conv2D)            (None, 12, 12, 64)        36928     
_________________________________________________________________
batch_normalization_4 (Batch (None, 12, 12, 64)        256       
_________________________________________________________________
activation_4 (Activation)    (None, 12, 12, 64)        0         
_________________________________________________________________
conv2d_5 (Conv2D)            (None, 10, 10, 64)        36928     
_________________________________________________________________
batch_normalization_5 (Batch (None, 10, 10, 64)        256       
_________________________________________________________________
activation_5 (Activation)    (None, 10, 10, 64)        0         
_________________________________________________________________
flatten_1 (Flatten)          (None, 6400)              0         
_________________________________________________________________
dropout_1 (Dropout)          (None, 6400)              0         
_________________________________________________________________
dense_1 (Dense)              (None, 1)                 6401      
=================================================================
Total params: 104,801
Trainable params: 104,321
Non-trainable params: 480
_________________________________________________________________
None
conv2d_1
conv2d_2
conv2d_3
conv2d_4
conv2d_5
pruning up to  10 % of the original model weights
Deleting 6/16 channels from layer: conv2d_1
Deleting 7/32 channels from layer: conv2d_2
Deleting 6/64 channels from layer: conv2d_3
Deleting 3/64 channels from layer: conv2d_4
Deleting 2/64 channels from layer: conv2d_5
_________________________________________________________________
Layer (type)                 Output Shape              Param #   
=================================================================
conv2d_1_input (InputLayer)  (None, 20, 20, 3)         0         
_________________________________________________________________
conv2d_1 (Conv2D)            (None, 18, 18, 10)        280       
_________________________________________________________________
batch_normalization_1 (Batch (None, 18, 18, 10)        40        
_________________________________________________________________
activation_1 (Activation)    (None, 18, 18, 10)        0         
_________________________________________________________________
conv2d_2 (Conv2D)            (None, 16, 16, 25)        2275      
_________________________________________________________________
batch_normalization_2 (Batch (None, 16, 16, 25)        100       
_________________________________________________________________
activation_2 (Activation)    (None, 16, 16, 25)        0         
_________________________________________________________________
conv2d_3 (Conv2D)            (None, 14, 14, 58)        13108     
_________________________________________________________________
batch_normalization_3 (Batch (None, 14, 14, 58)        232       
_________________________________________________________________
activation_3 (Activation)    (None, 14, 14, 58)        0         
_________________________________________________________________
conv2d_4 (Conv2D)            (None, 12, 12, 61)        31903     
_________________________________________________________________
batch_normalization_4 (Batch (None, 12, 12, 61)        244       
_________________________________________________________________
activation_4 (Activation)    (None, 12, 12, 61)        0         
_________________________________________________________________
conv2d_5 (Conv2D)            (None, 10, 10, 62)        34100     
_________________________________________________________________
batch_normalization_5 (Batch (None, 10, 10, 62)        248       
_________________________________________________________________
activation_5 (Activation)    (None, 10, 10, 62)        0         
_________________________________________________________________
flatten_1 (Flatten)          (None, 6200)              0         
_________________________________________________________________
dropout_1 (Dropout)          (None, 6200)              0         
_________________________________________________________________
dense_1 (Dense)              (None, 1)                 6201      
=================================================================
Total params: 88,731
Trainable params: 88,299
Non-trainable params: 432
_________________________________________________________________
None
Epoch 1/20

  1/400 [..............................] - ETA: 4:44 - loss: 0.0840 - acc: 0.9531
  7/400 [..............................] - ETA: 43s - loss: 0.0672 - acc: 0.9710 
 13/400 [..............................] - ETA: 24s - loss: 0.0747 - acc: 0.9736
…
400/400 [==============================] - 4s 10ms/step - loss: 0.0070 - acc: 0.9977 - val_loss: 0.0616 - val_acc: 0.9828
conv2d_1
conv2d_2
conv2d_3
conv2d_4
conv2d_5
pruning up to  20 % of the original model weights
Deleting 2/10 channels from layer: conv2d_1
Deleting 2/25 channels from layer: conv2d_2
Deleting 10/58 channels from layer: conv2d_3
Deleting 7/61 channels from layer: conv2d_4
Deleting 3/62 channels from layer: conv2d_5
_________________________________________________________________
Layer (type)                 Output Shape              Param #   
=================================================================
conv2d_1_input (InputLayer)  (None, 20, 20, 3)         0         
_________________________________________________________________
conv2d_1 (Conv2D)            (None, 18, 18, 8)         224       
_________________________________________________________________
batch_normalization_1 (Batch (None, 18, 18, 8)         32        
_________________________________________________________________
activation_1 (Activation)    (None, 18, 18, 8)         0         
_________________________________________________________________
conv2d_2 (Conv2D)            (None, 16, 16, 23)        1679      
_________________________________________________________________
batch_normalization_2 (Batch (None, 16, 16, 23)        92        
_________________________________________________________________
activation_2 (Activation)    (None, 16, 16, 23)        0         
_________________________________________________________________
conv2d_3 (Conv2D)            (None, 14, 14, 48)        9984      
_________________________________________________________________
batch_normalization_3 (Batch (None, 14, 14, 48)        192       
_________________________________________________________________
activation_3 (Activation)    (None, 14, 14, 48)        0         
_________________________________________________________________
conv2d_4 (Conv2D)            (None, 12, 12, 54)        23382     
_________________________________________________________________
batch_normalization_4 (Batch (None, 12, 12, 54)        216       
_________________________________________________________________
activation_4 (Activation)    (None, 12, 12, 54)        0         
_________________________________________________________________
conv2d_5 (Conv2D)            (None, 10, 10, 59)        28733     
_________________________________________________________________
batch_normalization_5 (Batch (None, 10, 10, 59)        236       
_________________________________________________________________
activation_5 (Activation)    (None, 10, 10, 59)        0         
_________________________________________________________________
flatten_1 (Flatten)          (None, 5900)              0         
_________________________________________________________________
dropout_1 (Dropout)          (None, 5900)              0         
_________________________________________________________________
dense_1 (Dense)              (None, 1)                 5901      
=================================================================
Total params: 70,671
Trainable params: 70,287
Non-trainable params: 384
_________________________________________________________________
None
Epoch 1/20

  1/400 [..............................] - ETA: 4:48 - loss: 0.4076 - acc: 0.9219
  7/400 [..............................] - ETA: 43s - loss: 0.2312 - acc: 0.9420 
 13/400 [..............................] - ETA: 24s - loss: 0.1628 - acc: 0.9531
…
400/400 [==============================] - 4s 10ms/step - loss: 0.0051 - acc: 0.9983 - val_loss: 0.0709 - val_acc: 0.9808
conv2d_1
conv2d_2
conv2d_3
conv2d_4
conv2d_5
pruning up to  30 % of the original model weights
Deleting 4/23 channels from layer: conv2d_2
Deleting 4/48 channels from layer: conv2d_3
Deleting 7/54 channels from layer: conv2d_4
Deleting 9/59 channels from layer: conv2d_5
_________________________________________________________________
Layer (type)                 Output Shape              Param #   
=================================================================
conv2d_1_input (InputLayer)  (None, 20, 20, 3)         0         
_________________________________________________________________
conv2d_1 (Conv2D)            (None, 18, 18, 8)         224       
_________________________________________________________________
batch_normalization_1 (Batch (None, 18, 18, 8)         32        
_________________________________________________________________
activation_1 (Activation)    (None, 18, 18, 8)         0         
_________________________________________________________________
conv2d_2 (Conv2D)            (None, 16, 16, 19)        1387      
_________________________________________________________________
batch_normalization_2 (Batch (None, 16, 16, 19)        76        
_________________________________________________________________
activation_2 (Activation)    (None, 16, 16, 19)        0         
_________________________________________________________________
conv2d_3 (Conv2D)            (None, 14, 14, 44)        7568      
_________________________________________________________________
batch_normalization_3 (Batch (None, 14, 14, 44)        176       
_________________________________________________________________
activation_3 (Activation)    (None, 14, 14, 44)        0         
_________________________________________________________________
conv2d_4 (Conv2D)            (None, 12, 12, 47)        18659     
_________________________________________________________________
batch_normalization_4 (Batch (None, 12, 12, 47)        188       
_________________________________________________________________
activation_4 (Activation)    (None, 12, 12, 47)        0         
_________________________________________________________________
conv2d_5 (Conv2D)            (None, 10, 10, 50)        21200     
_________________________________________________________________
batch_normalization_5 (Batch (None, 10, 10, 50)        200       
_________________________________________________________________
activation_5 (Activation)    (None, 10, 10, 50)        0         
_________________________________________________________________
flatten_1 (Flatten)          (None, 5000)              0         
_________________________________________________________________
dropout_1 (Dropout)          (None, 5000)              0         
_________________________________________________________________
dense_1 (Dense)              (None, 1)                 5001      
=================================================================
Total params: 54,711
Trainable params: 54,375
Non-trainable params: 336
_________________________________________________________________
None
Epoch 1/20

  1/400 [..............................] - ETA: 4:45 - loss: 0.5009 - acc: 0.8750
  7/400 [..............................] - ETA: 43s - loss: 0.4435 - acc: 0.8728 
 13/400 [..............................] - ETA: 24s - loss: 0.3121 - acc: 0.9111
…
400/400 [==============================] - 4s 10ms/step - loss: 0.0054 - acc: 0.9980 - val_loss: 0.1823 - val_acc: 0.9591
conv2d_1
conv2d_2
conv2d_3
conv2d_4
conv2d_5
pruning up to  40 % of the original model weights
Deleting 2/8 channels from layer: conv2d_1
Deleting 4/19 channels from layer: conv2d_2
Deleting 2/44 channels from layer: conv2d_3
Deleting 7/47 channels from layer: conv2d_4
Deleting 9/50 channels from layer: conv2d_5
_________________________________________________________________
Layer (type)                 Output Shape              Param #   
=================================================================
conv2d_1_input (InputLayer)  (None, 20, 20, 3)         0         
_________________________________________________________________
conv2d_1 (Conv2D)            (None, 18, 18, 6)         168       
_________________________________________________________________
batch_normalization_1 (Batch (None, 18, 18, 6)         24        
_________________________________________________________________
activation_1 (Activation)    (None, 18, 18, 6)         0         
_________________________________________________________________
conv2d_2 (Conv2D)            (None, 16, 16, 15)        825       
_________________________________________________________________
batch_normalization_2 (Batch (None, 16, 16, 15)        60        
_________________________________________________________________
activation_2 (Activation)    (None, 16, 16, 15)        0         
_________________________________________________________________
conv2d_3 (Conv2D)            (None, 14, 14, 42)        5712      
_________________________________________________________________
batch_normalization_3 (Batch (None, 14, 14, 42)        168       
_________________________________________________________________
activation_3 (Activation)    (None, 14, 14, 42)        0         
_________________________________________________________________
conv2d_4 (Conv2D)            (None, 12, 12, 40)        15160     
_________________________________________________________________
batch_normalization_4 (Batch (None, 12, 12, 40)        160       
_________________________________________________________________
activation_4 (Activation)    (None, 12, 12, 40)        0         
_________________________________________________________________
conv2d_5 (Conv2D)            (None, 10, 10, 41)        14801     
_________________________________________________________________
batch_normalization_5 (Batch (None, 10, 10, 41)        164       
_________________________________________________________________
activation_5 (Activation)    (None, 10, 10, 41)        0         
_________________________________________________________________
flatten_1 (Flatten)          (None, 4100)              0         
_________________________________________________________________
dropout_1 (Dropout)          (None, 4100)              0         
_________________________________________________________________
dense_1 (Dense)              (None, 1)                 4101      
=================================================================
Total params: 41,343
Trainable params: 41,055
Non-trainable params: 288
_________________________________________________________________
None
Epoch 1/20

  1/400 [..............................] - ETA: 4:46 - loss: 1.6583 - acc: 0.7969
  7/400 [..............................] - ETA: 43s - loss: 0.9763 - acc: 0.8192 
 13/400 [..............................] - ETA: 24s - loss: 0.6734 - acc: 0.8690
…
400/400 [==============================] - 4s 10ms/step - loss: 0.0062 - acc: 0.9980 - val_loss: 0.0490 - val_acc: 0.9875
conv2d_1
conv2d_2
conv2d_3
conv2d_4
conv2d_5
pruning up to  50 % of the original model weights
Deleting 1/15 channels from layer: conv2d_2
Deleting 8/42 channels from layer: conv2d_3
Deleting 7/40 channels from layer: conv2d_4
Deleting 8/41 channels from layer: conv2d_5
_________________________________________________________________
Layer (type)                 Output Shape              Param #   
=================================================================
conv2d_1_input (InputLayer)  (None, 20, 20, 3)         0         
_________________________________________________________________
conv2d_1 (Conv2D)            (None, 18, 18, 6)         168       
_________________________________________________________________
batch_normalization_1 (Batch (None, 18, 18, 6)         24        
_________________________________________________________________
activation_1 (Activation)    (None, 18, 18, 6)         0         
_________________________________________________________________
conv2d_2 (Conv2D)            (None, 16, 16, 14)        770       
_________________________________________________________________
batch_normalization_2 (Batch (None, 16, 16, 14)        56        
_________________________________________________________________
activation_2 (Activation)    (None, 16, 16, 14)        0         
_________________________________________________________________
conv2d_3 (Conv2D)            (None, 14, 14, 34)        4318      
_________________________________________________________________
batch_normalization_3 (Batch (None, 14, 14, 34)        136       
_________________________________________________________________
activation_3 (Activation)    (None, 14, 14, 34)        0         
_________________________________________________________________
conv2d_4 (Conv2D)            (None, 12, 12, 33)        10131     
_________________________________________________________________
batch_normalization_4 (Batch (None, 12, 12, 33)        132       
_________________________________________________________________
activation_4 (Activation)    (None, 12, 12, 33)        0         
_________________________________________________________________
conv2d_5 (Conv2D)            (None, 10, 10, 33)        9834      
_________________________________________________________________
batch_normalization_5 (Batch (None, 10, 10, 33)        132       
_________________________________________________________________
activation_5 (Activation)    (None, 10, 10, 33)        0         
_________________________________________________________________
flatten_1 (Flatten)          (None, 3300)              0         
_________________________________________________________________
dropout_1 (Dropout)          (None, 3300)              0         
_________________________________________________________________
dense_1 (Dense)              (None, 1)                 3301      
=================================================================
Total params: 29,002
Trainable params: 28,762
Non-trainable params: 240
_________________________________________________________________
None
Epoch 1/20

  1/400 [..............................] - ETA: 4:45 - loss: 2.0591 - acc: 0.6875
  7/400 [..............................] - ETA: 43s - loss: 1.1213 - acc: 0.7835 
 13/400 [..............................] - ETA: 24s - loss: 0.7483 - acc: 0.8413
…
400/400 [==============================] - 4s 9ms/step - loss: 0.0053 - acc: 0.9984 - val_loss: 0.0410 - val_acc: 0.9875
conv2d_1
conv2d_2
conv2d_3
conv2d_4
conv2d_5
pruning up to  60 % of the original model weights
Deleting 1/6 channels from layer: conv2d_1
Deleting 2/14 channels from layer: conv2d_2
Deleting 2/34 channels from layer: conv2d_3
Deleting 6/33 channels from layer: conv2d_4
Deleting 13/33 channels from layer: conv2d_5
_________________________________________________________________
Layer (type)                 Output Shape              Param #   
=================================================================
conv2d_1_input (InputLayer)  (None, 20, 20, 3)         0         
_________________________________________________________________
conv2d_1 (Conv2D)            (None, 18, 18, 5)         140       
_________________________________________________________________
batch_normalization_1 (Batch (None, 18, 18, 5)         20        
_________________________________________________________________
activation_1 (Activation)    (None, 18, 18, 5)         0         
_________________________________________________________________
conv2d_2 (Conv2D)            (None, 16, 16, 12)        552       
_________________________________________________________________
batch_normalization_2 (Batch (None, 16, 16, 12)        48        
_________________________________________________________________
activation_2 (Activation)    (None, 16, 16, 12)        0         
_________________________________________________________________
conv2d_3 (Conv2D)            (None, 14, 14, 32)        3488      
_________________________________________________________________
batch_normalization_3 (Batch (None, 14, 14, 32)        128       
_________________________________________________________________
activation_3 (Activation)    (None, 14, 14, 32)        0         
_________________________________________________________________
conv2d_4 (Conv2D)            (None, 12, 12, 27)        7803      
_________________________________________________________________
batch_normalization_4 (Batch (None, 12, 12, 27)        108       
_________________________________________________________________
activation_4 (Activation)    (None, 12, 12, 27)        0         
_________________________________________________________________
conv2d_5 (Conv2D)            (None, 10, 10, 20)        4880      
_________________________________________________________________
batch_normalization_5 (Batch (None, 10, 10, 20)        80        
_________________________________________________________________
activation_5 (Activation)    (None, 10, 10, 20)        0         
_________________________________________________________________
flatten_1 (Flatten)          (None, 2000)              0         
_________________________________________________________________
dropout_1 (Dropout)          (None, 2000)              0         
_________________________________________________________________
dense_1 (Dense)              (None, 1)                 2001      
=================================================================
Total params: 19,248
Trainable params: 19,056
Non-trainable params: 192
_________________________________________________________________
None
Epoch 1/20

  1/400 [..............................] - ETA: 6:10 - loss: 0.6751 - acc: 0.8281
  8/400 [..............................] - ETA: 48s - loss: 0.5213 - acc: 0.8613 
 15/400 [>.............................] - ETA: 26s - loss: 0.3894 - acc: 0.8938
…
400/400 [==============================] - 4s 9ms/step - loss: 0.0093 - acc: 0.9971 - val_loss: 0.0541 - val_acc: 0.9794
conv2d_1
conv2d_2
conv2d_3
conv2d_4
conv2d_5
pruning up to  70 % of the original model weights
Deleting 1/5 channels from layer: conv2d_1
Deleting 2/12 channels from layer: conv2d_2
Deleting 7/32 channels from layer: conv2d_3
Deleting 6/27 channels from layer: conv2d_4
Deleting 8/20 channels from layer: conv2d_5
_________________________________________________________________
Layer (type)                 Output Shape              Param #   
=================================================================
conv2d_1_input (InputLayer)  (None, 20, 20, 3)         0         
_________________________________________________________________
conv2d_1 (Conv2D)            (None, 18, 18, 4)         112       
_________________________________________________________________
batch_normalization_1 (Batch (None, 18, 18, 4)         16        
_________________________________________________________________
activation_1 (Activation)    (None, 18, 18, 4)         0         
_________________________________________________________________
conv2d_2 (Conv2D)            (None, 16, 16, 10)        370       
_________________________________________________________________
batch_normalization_2 (Batch (None, 16, 16, 10)        40        
_________________________________________________________________
activation_2 (Activation)    (None, 16, 16, 10)        0         
_________________________________________________________________
conv2d_3 (Conv2D)            (None, 14, 14, 25)        2275      
_________________________________________________________________
batch_normalization_3 (Batch (None, 14, 14, 25)        100       
_________________________________________________________________
activation_3 (Activation)    (None, 14, 14, 25)        0         
_________________________________________________________________
conv2d_4 (Conv2D)            (None, 12, 12, 21)        4746      
_________________________________________________________________
batch_normalization_4 (Batch (None, 12, 12, 21)        84        
_________________________________________________________________
activation_4 (Activation)    (None, 12, 12, 21)        0         
_________________________________________________________________
conv2d_5 (Conv2D)            (None, 10, 10, 12)        2280      
_________________________________________________________________
batch_normalization_5 (Batch (None, 10, 10, 12)        48        
_________________________________________________________________
activation_5 (Activation)    (None, 10, 10, 12)        0         
_________________________________________________________________
flatten_1 (Flatten)          (None, 1200)              0         
_________________________________________________________________
dropout_1 (Dropout)          (None, 1200)              0         
_________________________________________________________________
dense_1 (Dense)              (None, 1)                 1201      
=================================================================
Total params: 11,272
Trainable params: 11,128
Non-trainable params: 144
_________________________________________________________________
None
Epoch 1/20

  1/400 [..............................] - ETA: 4:50 - loss: 2.2163 - acc: 0.7344
  7/400 [..............................] - ETA: 43s - loss: 1.7262 - acc: 0.7701 
 14/400 [>.............................] - ETA: 23s - loss: 1.3443 - acc: 0.7701
…
400/400 [==============================] - 3s 9ms/step - loss: 0.0264 - acc: 0.9908 - val_loss: 0.0556 - val_acc: 0.9800
conv2d_1
conv2d_2
conv2d_3
conv2d_4
conv2d_5
pruning up to  80 % of the original model weights
Deleting 4/10 channels from layer: conv2d_2
Deleting 7/25 channels from layer: conv2d_3
Deleting 9/21 channels from layer: conv2d_4
Deleting 4/12 channels from layer: conv2d_5
_________________________________________________________________
Layer (type)                 Output Shape              Param #   
=================================================================
conv2d_1_input (InputLayer)  (None, 20, 20, 3)         0         
_________________________________________________________________
conv2d_1 (Conv2D)            (None, 18, 18, 4)         112       
_________________________________________________________________
batch_normalization_1 (Batch (None, 18, 18, 4)         16        
_________________________________________________________________
activation_1 (Activation)    (None, 18, 18, 4)         0         
_________________________________________________________________
conv2d_2 (Conv2D)            (None, 16, 16, 6)         222       
_________________________________________________________________
batch_normalization_2 (Batch (None, 16, 16, 6)         24        
_________________________________________________________________
activation_2 (Activation)    (None, 16, 16, 6)         0         
_________________________________________________________________
conv2d_3 (Conv2D)            (None, 14, 14, 18)        990       
_________________________________________________________________
batch_normalization_3 (Batch (None, 14, 14, 18)        72        
_________________________________________________________________
activation_3 (Activation)    (None, 14, 14, 18)        0         
_________________________________________________________________
conv2d_4 (Conv2D)            (None, 12, 12, 12)        1956      
_________________________________________________________________
batch_normalization_4 (Batch (None, 12, 12, 12)        48        
_________________________________________________________________
activation_4 (Activation)    (None, 12, 12, 12)        0         
_________________________________________________________________
conv2d_5 (Conv2D)            (None, 10, 10, 8)         872       
_________________________________________________________________
batch_normalization_5 (Batch (None, 10, 10, 8)         32        
_________________________________________________________________
activation_5 (Activation)    (None, 10, 10, 8)         0         
_________________________________________________________________
flatten_1 (Flatten)          (None, 800)               0         
_________________________________________________________________
dropout_1 (Dropout)          (None, 800)               0         
_________________________________________________________________
dense_1 (Dense)              (None, 1)                 801       
=================================================================
Total params: 5,145
Trainable params: 5,049
Non-trainable params: 96
_________________________________________________________________
None
Epoch 1/20

  1/400 [..............................] - ETA: 4:43 - loss: 0.9840 - acc: 0.7656
  8/400 [..............................] - ETA: 37s - loss: 1.2236 - acc: 0.7559 
 15/400 [>.............................] - ETA: 21s - loss: 0.9000 - acc: 0.7854
…
400/400 [==============================] - 3s 8ms/step - loss: 0.0449 - acc: 0.9826 - val_loss: 0.1102 - val_acc: 0.9617
conv2d_1
conv2d_2
conv2d_3
conv2d_4
conv2d_5
pruning up to  90 % of the original model weights
Deleting 1/4 channels from layer: conv2d_1
Deleting 5/6 channels from layer: conv2d_2
Deleting 7/18 channels from layer: conv2d_3
Deleting 7/12 channels from layer: conv2d_4
Deleting 4/8 channels from layer: conv2d_5
_________________________________________________________________
Layer (type)                 Output Shape              Param #   
=================================================================
conv2d_1_input (InputLayer)  (None, 20, 20, 3)         0         
_________________________________________________________________
conv2d_1 (Conv2D)            (None, 18, 18, 3)         84        
_________________________________________________________________
batch_normalization_1 (Batch (None, 18, 18, 3)         12        
_________________________________________________________________
activation_1 (Activation)    (None, 18, 18, 3)         0         
_________________________________________________________________
conv2d_2 (Conv2D)            (None, 16, 16, 1)         28        
_________________________________________________________________
batch_normalization_2 (Batch (None, 16, 16, 1)         4         
_________________________________________________________________
activation_2 (Activation)    (None, 16, 16, 1)         0         
_________________________________________________________________
conv2d_3 (Conv2D)            (None, 14, 14, 11)        110       
_________________________________________________________________
batch_normalization_3 (Batch (None, 14, 14, 11)        44        
_________________________________________________________________
activation_3 (Activation)    (None, 14, 14, 11)        0         
_________________________________________________________________
conv2d_4 (Conv2D)            (None, 12, 12, 5)         500       
_________________________________________________________________
batch_normalization_4 (Batch (None, 12, 12, 5)         20        
_________________________________________________________________
activation_4 (Activation)    (None, 12, 12, 5)         0         
_________________________________________________________________
conv2d_5 (Conv2D)            (None, 10, 10, 4)         184       
_________________________________________________________________
batch_normalization_5 (Batch (None, 10, 10, 4)         16        
_________________________________________________________________
activation_5 (Activation)    (None, 10, 10, 4)         0         
_________________________________________________________________
flatten_1 (Flatten)          (None, 400)               0         
_________________________________________________________________
dropout_1 (Dropout)          (None, 400)               0         
_________________________________________________________________
dense_1 (Dense)              (None, 1)                 401       
=================================================================
Total params: 1,403
Trainable params: 1,355
Non-trainable params: 48
_________________________________________________________________
None
Epoch 1/20

  1/400 [..............................] - ETA: 4:35 - loss: 2.2115 - acc: 0.7656
  8/400 [..............................] - ETA: 36s - loss: 2.2162 - acc: 0.7617 
 15/400 [>.............................] - ETA: 20s - loss: 2.3782 - acc: 0.7396
…
