…
 - 4s - loss: 0.0581 - acc: 0.9795 - val_loss: 0.0624 - val_acc: 0.9770
Epoch 7/10
 - 4s - loss: 0.0526 - acc: 0.9809 - val_loss: 0.0574 - val_acc: 0.9786
Epoch 8/10
 - 4s - loss: 0.0441 - acc: 0.9846 - val_loss: 0.0880 - val_acc: 0.9692
Epoch 9/10
 - 4s - loss: 0.0404 - acc: 0.9859 - val_loss: 0.1023 - val_acc: 0.9634
Epoch 10/10
 - 4s - loss: 0.0301 - acc: 0.9897 - val_loss: 0.0508 - val_acc: 0.9830
Model saved to disk.
_________________________________________________________________
Layer (type)                 Output Shape              Param #   
=================================================================
conv2d_1 (Conv2D)            (None, 18, 18, 16)        448       
_________________________________________________________________
batch_normalization_1 (Batch (None, 18, 18, 16)        64        
_________________________________________________________________
activation_1 (Activation)    (None, 18, 18, 16)        0         
_________________________________________________________________
conv2d_2 (Conv2D)            (None, 16, 16, 32)        4640      
_________________________________________________________________
batch_normalization_2 (Batch (None, 16, 16, 32)        128       
_________________________________________________________________
activation_2 (Activation)    (None, 16, 16, 32)        0         
_________________________________________________________________
conv2d_3 (Conv2D)            (None, 14, 14, 64)        18496     
_________________________________________________________________
batch_normalization_3 (Batch (None, 14, 14, 64)        256       
_________________________________________________________________
activation_3 (Activation)    (None, 14, 14, 64)        0         
_________________________________________________________________
conv2d_4 (Conv2D)            (None, 12, 12, 64)        36928     
_________________________________________________________________
batch_normalization_4 (Batch (None, 12, 12, 64)        256       
_________________________________________________________________
activation_4 (Activation)    (None, 12, 12, 64)        0         
_________________________________________________________________
conv2d_5 (Conv2D)            (None, 10, 10, 64)        36928     
_________________________________________________________________
batch_normalization_5 (Batch (None, 10, 10, 64)        256       
_________________________________________________________________
activation_5 (Activation)    (None, 10, 10, 64)        0         
_________________________________________________________________
flatten_1 (Flatten)          (None, 6400)              0         
_________________________________________________________________
dropout_1 (Dropout)          (None, 6400)              0         
_________________________________________________________________
dense_1 (Dense)              (None, 1)                 6401      
=================================================================
Total params: 104,801
Trainable params: 104,321
Non-trainable params: 480
_________________________________________________________________
None
conv2d_1
conv2d_2
conv2d_3
conv2d_4
conv2d_5
pruning up to  2 % of the original model weights
Deleting 2/32 channels from layer: conv2d_2
Deleting 2/64 channels from layer: conv2d_3
_________________________________________________________________
Layer (type)                 Output Shape              Param #   
=================================================================
conv2d_1_input (InputLayer)  (None, 20, 20, 3)         0         
_________________________________________________________________
conv2d_1 (Conv2D)            (None, 18, 18, 16)        448       
_________________________________________________________________
batch_normalization_1 (Batch (None, 18, 18, 16)        64        
_________________________________________________________________
activation_1 (Activation)    (None, 18, 18, 16)        0         
_________________________________________________________________
conv2d_2 (Conv2D)            (None, 16, 16, 30)        4350      
_________________________________________________________________
batch_normalization_2 (Batch (None, 16, 16, 30)        120       
_________________________________________________________________
activation_2 (Activation)    (None, 16, 16, 30)        0         
_________________________________________________________________
conv2d_3 (Conv2D)            (None, 14, 14, 62)        16802     
_________________________________________________________________
batch_normalization_3 (Batch (None, 14, 14, 62)        248       
_________________________________________________________________
activation_3 (Activation)    (None, 14, 14, 62)        0         
_________________________________________________________________
conv2d_4 (Conv2D)            (None, 12, 12, 64)        35776     
_________________________________________________________________
batch_normalization_4 (Batch (None, 12, 12, 64)        256       
_________________________________________________________________
activation_4 (Activation)    (None, 12, 12, 64)        0         
_________________________________________________________________
conv2d_5 (Conv2D)            (None, 10, 10, 64)        36928     
_________________________________________________________________
batch_normalization_5 (Batch (None, 10, 10, 64)        256       
_________________________________________________________________
activation_5 (Activation)    (None, 10, 10, 64)        0         
_________________________________________________________________
flatten_1 (Flatten)          (None, 6400)              0         
_________________________________________________________________
dropout_1 (Dropout)          (None, 6400)              0         
_________________________________________________________________
dense_1 (Dense)              (None, 1)                 6401      
=================================================================
Total params: 101,649
Trainable params: 101,177
Non-trainable params: 472
_________________________________________________________________
None
Epoch 1/5

  1/400 [..............................] - ETA: 4:52 - loss: 0.0314 - acc: 1.0000
  6/400 [..............................] - ETA: 51s - loss: 0.0687 - acc: 0.9818 
 11/400 [..............................] - ETA: 29s - loss: 0.0614 - acc: 0.9801
…
397/400 [============================>.] - ETA: 0s - loss: 0.0222 - acc: 0.9926
400/400 [==============================] - 4s 11ms/step - loss: 0.0222 - acc: 0.9925 - val_loss: 0.1031 - val_acc: 0.9653
conv2d_1
conv2d_2
conv2d_3
conv2d_4
conv2d_5
pruning up to  4 % of the original model weights
Deleting 2/62 channels from layer: conv2d_3
Deleting 1/64 channels from layer: conv2d_4
Deleting 1/64 channels from layer: conv2d_5
_________________________________________________________________
Layer (type)                 Output Shape              Param #   
=================================================================
conv2d_1_input (InputLayer)  (None, 20, 20, 3)         0         
_________________________________________________________________
conv2d_1 (Conv2D)            (None, 18, 18, 16)        448       
_________________________________________________________________
batch_normalization_1 (Batch (None, 18, 18, 16)        64        
_________________________________________________________________
activation_1 (Activation)    (None, 18, 18, 16)        0         
_________________________________________________________________
conv2d_2 (Conv2D)            (None, 16, 16, 30)        4350      
_________________________________________________________________
batch_normalization_2 (Batch (None, 16, 16, 30)        120       
_________________________________________________________________
activation_2 (Activation)    (None, 16, 16, 30)        0         
_________________________________________________________________
conv2d_3 (Conv2D)            (None, 14, 14, 60)        16260     
_________________________________________________________________
batch_normalization_3 (Batch (None, 14, 14, 60)        240       
_________________________________________________________________
activation_3 (Activation)    (None, 14, 14, 60)        0         
_________________________________________________________________
conv2d_4 (Conv2D)            (None, 12, 12, 63)        34083     
_________________________________________________________________
batch_normalization_4 (Batch (None, 12, 12, 63)        252       
_________________________________________________________________
activation_4 (Activation)    (None, 12, 12, 63)        0         
_________________________________________________________________
conv2d_5 (Conv2D)            (None, 10, 10, 63)        35784     
_________________________________________________________________
batch_normalization_5 (Batch (None, 10, 10, 63)        252       
_________________________________________________________________
activation_5 (Activation)    (None, 10, 10, 63)        0         
_________________________________________________________________
flatten_1 (Flatten)          (None, 6300)              0         
_________________________________________________________________
dropout_1 (Dropout)          (None, 6300)              0         
_________________________________________________________________
dense_1 (Dense)              (None, 1)                 6301      
=================================================================
Total params: 98,154
Trainable params: 97,690
Non-trainable params: 464
_________________________________________________________________
None
Epoch 1/5

  1/400 [..............................] - ETA: 5:07 - loss: 0.0540 - acc: 0.9531
  6/400 [..............................] - ETA: 54s - loss: 0.0329 - acc: 0.9844 
 11/400 [..............................] - ETA: 30s - loss: 0.0502 - acc: 0.9815
…
398/400 [============================>.] - ETA: 0s - loss: 0.0160 - acc: 0.9945
400/400 [==============================] - 4s 11ms/step - loss: 0.0160 - acc: 0.9945 - val_loss: 0.0616 - val_acc: 0.9802
conv2d_1
conv2d_2
conv2d_3
conv2d_4
conv2d_5
pruning up to  6 % of the original model weights
Deleting 1/60 channels from layer: conv2d_3
Deleting 1/63 channels from layer: conv2d_4
Deleting 2/63 channels from layer: conv2d_5
_________________________________________________________________
Layer (type)                 Output Shape              Param #   
=================================================================
conv2d_1_input (InputLayer)  (None, 20, 20, 3)         0         
_________________________________________________________________
conv2d_1 (Conv2D)            (None, 18, 18, 16)        448       
_________________________________________________________________
batch_normalization_1 (Batch (None, 18, 18, 16)        64        
_________________________________________________________________
activation_1 (Activation)    (None, 18, 18, 16)        0         
_________________________________________________________________
conv2d_2 (Conv2D)            (None, 16, 16, 30)        4350      
_________________________________________________________________
batch_normalization_2 (Batch (None, 16, 16, 30)        120       
_________________________________________________________________
activation_2 (Activation)    (None, 16, 16, 30)        0         
_________________________________________________________________
conv2d_3 (Conv2D)            (None, 14, 14, 59)        15989     
_________________________________________________________________
batch_normalization_3 (Batch (None, 14, 14, 59)        236       
_________________________________________________________________
activation_3 (Activation)    (None, 14, 14, 59)        0         
_________________________________________________________________
conv2d_4 (Conv2D)            (None, 12, 12, 62)        32984     
_________________________________________________________________
batch_normalization_4 (Batch (None, 12, 12, 62)        248       
_________________________________________________________________
activation_4 (Activation)    (None, 12, 12, 62)        0         
_________________________________________________________________
conv2d_5 (Conv2D)            (None, 10, 10, 61)        34099     
_________________________________________________________________
batch_normalization_5 (Batch (None, 10, 10, 61)        244       
_________________________________________________________________
activation_5 (Activation)    (None, 10, 10, 61)        0         
_________________________________________________________________
flatten_1 (Flatten)          (None, 6100)              0         
_________________________________________________________________
dropout_1 (Dropout)          (None, 6100)              0         
_________________________________________________________________
dense_1 (Dense)              (None, 1)                 6101      
=================================================================
Total params: 94,883
Trainable params: 94,427
Non-trainable params: 456
_________________________________________________________________
None
Epoch 1/5

  1/400 [..............................] - ETA: 5:02 - loss: 0.1432 - acc: 0.9688
  6/400 [..............................] - ETA: 53s - loss: 0.0464 - acc: 0.9818 
 12/400 [..............................] - ETA: 28s - loss: 0.0295 - acc: 0.9896
…
397/400 [============================>.] - ETA: 0s - loss: 0.0116 - acc: 0.9963
400/400 [==============================] - 4s 10ms/step - loss: 0.0116 - acc: 0.9962 - val_loss: 0.0894 - val_acc: 0.9705
conv2d_1
conv2d_2
conv2d_3
conv2d_4
conv2d_5
pruning up to  8 % of the original model weights
Deleting 2/30 channels from layer: conv2d_2
Deleting 1/59 channels from layer: conv2d_3
Deleting 1/61 channels from layer: conv2d_5
_________________________________________________________________
Layer (type)                 Output Shape              Param #   
=================================================================
conv2d_1_input (InputLayer)  (None, 20, 20, 3)         0         
_________________________________________________________________
conv2d_1 (Conv2D)            (None, 18, 18, 16)        448       
_________________________________________________________________
batch_normalization_1 (Batch (None, 18, 18, 16)        64        
_________________________________________________________________
activation_1 (Activation)    (None, 18, 18, 16)        0         
_________________________________________________________________
conv2d_2 (Conv2D)            (None, 16, 16, 28)        4060      
_________________________________________________________________
batch_normalization_2 (Batch (None, 16, 16, 28)        112       
_________________________________________________________________
activation_2 (Activation)    (None, 16, 16, 28)        0         
_________________________________________________________________
conv2d_3 (Conv2D)            (None, 14, 14, 58)        14674     
_________________________________________________________________
batch_normalization_3 (Batch (None, 14, 14, 58)        232       
_________________________________________________________________
activation_3 (Activation)    (None, 14, 14, 58)        0         
_________________________________________________________________
conv2d_4 (Conv2D)            (None, 12, 12, 62)        32426     
_________________________________________________________________
batch_normalization_4 (Batch (None, 12, 12, 62)        248       
_________________________________________________________________
activation_4 (Activation)    (None, 12, 12, 62)        0         
_________________________________________________________________
conv2d_5 (Conv2D)            (None, 10, 10, 60)        33540     
_________________________________________________________________
batch_normalization_5 (Batch (None, 10, 10, 60)        240       
_________________________________________________________________
activation_5 (Activation)    (None, 10, 10, 60)        0         
_________________________________________________________________
flatten_1 (Flatten)          (None, 6000)              0         
_________________________________________________________________
dropout_1 (Dropout)          (None, 6000)              0         
_________________________________________________________________
dense_1 (Dense)              (None, 1)                 6001      
=================================================================
Total params: 92,045
Trainable params: 91,597
Non-trainable params: 448
_________________________________________________________________
None
Epoch 1/5

  1/400 [..............................] - ETA: 4:47 - loss: 0.0423 - acc: 0.9844
  7/400 [..............................] - ETA: 43s - loss: 0.0219 - acc: 0.9911 
 13/400 [..............................] - ETA: 24s - loss: 0.0222 - acc: 0.9928
…
397/400 [============================>.] - ETA: 0s - loss: 0.0089 - acc: 0.9971
400/400 [==============================] - 4s 10ms/step - loss: 0.0089 - acc: 0.9971 - val_loss: 0.0614 - val_acc: 0.9828
conv2d_1
conv2d_2
conv2d_3
conv2d_4
conv2d_5
pruning up to  10 % of the original model weights
Deleting 1/28 channels from layer: conv2d_2
Deleting 3/60 channels from layer: conv2d_5
_________________________________________________________________
Layer (type)                 Output Shape              Param #   
=================================================================
conv2d_1_input (InputLayer)  (None, 20, 20, 3)         0         
_________________________________________________________________
conv2d_1 (Conv2D)            (None, 18, 18, 16)        448       
_________________________________________________________________
batch_normalization_1 (Batch (None, 18, 18, 16)        64        
_________________________________________________________________
activation_1 (Activation)    (None, 18, 18, 16)        0         
_________________________________________________________________
conv2d_2 (Conv2D)            (None, 16, 16, 27)        3915      
_________________________________________________________________
batch_normalization_2 (Batch (None, 16, 16, 27)        108       
_________________________________________________________________
activation_2 (Activation)    (None, 16, 16, 27)        0         
_________________________________________________________________
conv2d_3 (Conv2D)            (None, 14, 14, 58)        14152     
_________________________________________________________________
batch_normalization_3 (Batch (None, 14, 14, 58)        232       
_________________________________________________________________
activation_3 (Activation)    (None, 14, 14, 58)        0         
_________________________________________________________________
conv2d_4 (Conv2D)            (None, 12, 12, 62)        32426     
_________________________________________________________________
batch_normalization_4 (Batch (None, 12, 12, 62)        248       
_________________________________________________________________
activation_4 (Activation)    (None, 12, 12, 62)        0         
_________________________________________________________________
conv2d_5 (Conv2D)            (None, 10, 10, 57)        31863     
_________________________________________________________________
batch_normalization_5 (Batch (None, 10, 10, 57)        228       
_________________________________________________________________
activation_5 (Activation)    (None, 10, 10, 57)        0         
_________________________________________________________________
flatten_1 (Flatten)          (None, 5700)              0         
_________________________________________________________________
dropout_1 (Dropout)          (None, 5700)              0         
_________________________________________________________________
dense_1 (Dense)              (None, 1)                 5701      
=================================================================
Total params: 89,385
Trainable params: 88,945
Non-trainable params: 440
_________________________________________________________________
None
Epoch 1/5

  1/400 [..............................] - ETA: 4:52 - loss: 0.0212 - acc: 0.9844
  7/400 [..............................] - ETA: 44s - loss: 0.0125 - acc: 0.9955 
 13/400 [..............................] - ETA: 25s - loss: 0.0252 - acc: 0.9904
…
396/400 [============================>.] - ETA: 0s - loss: 0.0073 - acc: 0.9977
400/400 [==============================] - 4s 10ms/step - loss: 0.0072 - acc: 0.9977 - val_loss: 0.0434 - val_acc: 0.9869
conv2d_1
conv2d_2
conv2d_3
conv2d_4
conv2d_5
pruning up to  12 % of the original model weights
Deleting 3/58 channels from layer: conv2d_3
Deleting 1/62 channels from layer: conv2d_4
_________________________________________________________________
Layer (type)                 Output Shape              Param #   
=================================================================
conv2d_1_input (InputLayer)  (None, 20, 20, 3)         0         
_________________________________________________________________
conv2d_1 (Conv2D)            (None, 18, 18, 16)        448       
_________________________________________________________________
batch_normalization_1 (Batch (None, 18, 18, 16)        64        
_________________________________________________________________
activation_1 (Activation)    (None, 18, 18, 16)        0         
_________________________________________________________________
conv2d_2 (Conv2D)            (None, 16, 16, 27)        3915      
_________________________________________________________________
batch_normalization_2 (Batch (None, 16, 16, 27)        108       
_________________________________________________________________
activation_2 (Activation)    (None, 16, 16, 27)        0         
_________________________________________________________________
conv2d_3 (Conv2D)            (None, 14, 14, 55)        13420     
_________________________________________________________________
batch_normalization_3 (Batch (None, 14, 14, 55)        220       
_________________________________________________________________
activation_3 (Activation)    (None, 14, 14, 55)        0         
_________________________________________________________________
conv2d_4 (Conv2D)            (None, 12, 12, 61)        30256     
_________________________________________________________________
batch_normalization_4 (Batch (None, 12, 12, 61)        244       
_________________________________________________________________
activation_4 (Activation)    (None, 12, 12, 61)        0         
_________________________________________________________________
conv2d_5 (Conv2D)            (None, 10, 10, 57)        31350     
_________________________________________________________________
batch_normalization_5 (Batch (None, 10, 10, 57)        228       
_________________________________________________________________
activation_5 (Activation)    (None, 10, 10, 57)        0         
_________________________________________________________________
flatten_1 (Flatten)          (None, 5700)              0         
_________________________________________________________________
dropout_1 (Dropout)          (None, 5700)              0         
_________________________________________________________________
dense_1 (Dense)              (None, 1)                 5701      
=================================================================
Total params: 85,954
Trainable params: 85,522
Non-trainable params: 432
_________________________________________________________________
None
Epoch 1/5

  1/400 [..............................] - ETA: 4:42 - loss: 0.0040 - acc: 1.0000
  7/400 [..............................] - ETA: 43s - loss: 0.0169 - acc: 0.9933 
 13/400 [..............................] - ETA: 24s - loss: 0.0111 - acc: 0.9964
…
394/400 [============================>.] - ETA: 0s - loss: 0.0065 - acc: 0.9981
400/400 [==============================] - 4s 10ms/step - loss: 0.0065 - acc: 0.9981 - val_loss: 0.0588 - val_acc: 0.9842
conv2d_1
conv2d_2
conv2d_3
conv2d_4
conv2d_5
pruning up to  14 % of the original model weights
Deleting 1/61 channels from layer: conv2d_4
Deleting 3/57 channels from layer: conv2d_5
_________________________________________________________________
Layer (type)                 Output Shape              Param #   
=================================================================
conv2d_1_input (InputLayer)  (None, 20, 20, 3)         0         
_________________________________________________________________
conv2d_1 (Conv2D)            (None, 18, 18, 16)        448       
_________________________________________________________________
batch_normalization_1 (Batch (None, 18, 18, 16)        64        
_________________________________________________________________
activation_1 (Activation)    (None, 18, 18, 16)        0         
_________________________________________________________________
conv2d_2 (Conv2D)            (None, 16, 16, 27)        3915      
_________________________________________________________________
batch_normalization_2 (Batch (None, 16, 16, 27)        108       
_________________________________________________________________
activation_2 (Activation)    (None, 16, 16, 27)        0         
_________________________________________________________________
conv2d_3 (Conv2D)            (None, 14, 14, 55)        13420     
_________________________________________________________________
batch_normalization_3 (Batch (None, 14, 14, 55)        220       
_________________________________________________________________
activation_3 (Activation)    (None, 14, 14, 55)        0         
_________________________________________________________________
conv2d_4 (Conv2D)            (None, 12, 12, 60)        29760     
_________________________________________________________________
batch_normalization_4 (Batch (None, 12, 12, 60)        240       
_________________________________________________________________
activation_4 (Activation)    (None, 12, 12, 60)        0         
_________________________________________________________________
conv2d_5 (Conv2D)            (None, 10, 10, 54)        29214     
_________________________________________________________________
batch_normalization_5 (Batch (None, 10, 10, 54)        216       
_________________________________________________________________
activation_5 (Activation)    (None, 10, 10, 54)        0         
_________________________________________________________________
flatten_1 (Flatten)          (None, 5400)              0         
_________________________________________________________________
dropout_1 (Dropout)          (None, 5400)              0         
_________________________________________________________________
dense_1 (Dense)              (None, 1)                 5401      
=================================================================
Total params: 83,006
Trainable params: 82,582
Non-trainable params: 424
_________________________________________________________________
None
Epoch 1/5

  1/400 [..............................] - ETA: 4:41 - loss: 0.0090 - acc: 1.0000
  7/400 [..............................] - ETA: 42s - loss: 0.0037 - acc: 1.0000 
 13/400 [..............................] - ETA: 24s - loss: 0.0030 - acc: 1.0000
…
398/400 [============================>.] - ETA: 0s - loss: 0.0051 - acc: 0.9984
400/400 [==============================] - 4s 10ms/step - loss: 0.0051 - acc: 0.9984 - val_loss: 0.0927 - val_acc: 0.9750
conv2d_1
conv2d_2
conv2d_3
conv2d_4
conv2d_5
pruning up to  16 % of the original model weights
Deleting 1/27 channels from layer: conv2d_2
Deleting 2/55 channels from layer: conv2d_3
Deleting 1/54 channels from layer: conv2d_5
_________________________________________________________________
Layer (type)                 Output Shape              Param #   
=================================================================
conv2d_1_input (InputLayer)  (None, 20, 20, 3)         0         
_________________________________________________________________
conv2d_1 (Conv2D)            (None, 18, 18, 16)        448       
_________________________________________________________________
batch_normalization_1 (Batch (None, 18, 18, 16)        64        
_________________________________________________________________
activation_1 (Activation)    (None, 18, 18, 16)        0         
_________________________________________________________________
conv2d_2 (Conv2D)            (None, 16, 16, 26)        3770      
_________________________________________________________________
batch_normalization_2 (Batch (None, 16, 16, 26)        104       
_________________________________________________________________
activation_2 (Activation)    (None, 16, 16, 26)        0         
_________________________________________________________________
conv2d_3 (Conv2D)            (None, 14, 14, 53)        12455     
_________________________________________________________________
batch_normalization_3 (Batch (None, 14, 14, 53)        212       
_________________________________________________________________
activation_3 (Activation)    (None, 14, 14, 53)        0         
_________________________________________________________________
conv2d_4 (Conv2D)            (None, 12, 12, 60)        28680     
_________________________________________________________________
batch_normalization_4 (Batch (None, 12, 12, 60)        240       
_________________________________________________________________
activation_4 (Activation)    (None, 12, 12, 60)        0         
_________________________________________________________________
conv2d_5 (Conv2D)            (None, 10, 10, 53)        28673     
_________________________________________________________________
batch_normalization_5 (Batch (None, 10, 10, 53)        212       
_________________________________________________________________
activation_5 (Activation)    (None, 10, 10, 53)        0         
_________________________________________________________________
flatten_1 (Flatten)          (None, 5300)              0         
_________________________________________________________________
dropout_1 (Dropout)          (None, 5300)              0         
_________________________________________________________________
dense_1 (Dense)              (None, 1)                 5301      
=================================================================
Total params: 80,159
Trainable params: 79,743
Non-trainable params: 416
_________________________________________________________________
None
Epoch 1/5

  1/400 [..............................] - ETA: 4:56 - loss: 0.0740 - acc: 0.9688
  7/400 [..............................] - ETA: 44s - loss: 0.0186 - acc: 0.9933 
 13/400 [..............................] - ETA: 25s - loss: 0.0161 - acc: 0.9940
…
396/400 [============================>.] - ETA: 0s - loss: 0.0053 - acc: 0.9984
400/400 [==============================] - 4s 9ms/step - loss: 0.0053 - acc: 0.9984 - val_loss: 0.0683 - val_acc: 0.9816
conv2d_1
conv2d_2
conv2d_3
conv2d_4
conv2d_5
pruning up to  18 % of the original model weights
Deleting 1/16 channels from layer: conv2d_1
Deleting 2/60 channels from layer: conv2d_4
Deleting 1/53 channels from layer: conv2d_5
_________________________________________________________________
Layer (type)                 Output Shape              Param #   
=================================================================
conv2d_1_input (InputLayer)  (None, 20, 20, 3)         0         
_________________________________________________________________
conv2d_1 (Conv2D)            (None, 18, 18, 15)        420       
_________________________________________________________________
batch_normalization_1 (Batch (None, 18, 18, 15)        60        
_________________________________________________________________
activation_1 (Activation)    (None, 18, 18, 15)        0         
_________________________________________________________________
conv2d_2 (Conv2D)            (None, 16, 16, 26)        3536      
_________________________________________________________________
batch_normalization_2 (Batch (None, 16, 16, 26)        104       
_________________________________________________________________
activation_2 (Activation)    (None, 16, 16, 26)        0         
_________________________________________________________________
conv2d_3 (Conv2D)            (None, 14, 14, 53)        12455     
_________________________________________________________________
batch_normalization_3 (Batch (None, 14, 14, 53)        212       
_________________________________________________________________
activation_3 (Activation)    (None, 14, 14, 53)        0         
_________________________________________________________________
conv2d_4 (Conv2D)            (None, 12, 12, 58)        27724     
_________________________________________________________________
batch_normalization_4 (Batch (None, 12, 12, 58)        232       
_________________________________________________________________
activation_4 (Activation)    (None, 12, 12, 58)        0         
_________________________________________________________________
conv2d_5 (Conv2D)            (None, 10, 10, 52)        27196     
_________________________________________________________________
batch_normalization_5 (Batch (None, 10, 10, 52)        208       
_________________________________________________________________
activation_5 (Activation)    (None, 10, 10, 52)        0         
_________________________________________________________________
flatten_1 (Flatten)          (None, 5200)              0         
_________________________________________________________________
dropout_1 (Dropout)          (None, 5200)              0         
_________________________________________________________________
dense_1 (Dense)              (None, 1)                 5201      
=================================================================
Total params: 77,348
Trainable params: 76,940
Non-trainable params: 408
_________________________________________________________________
None
Epoch 1/5

  1/400 [..............................] - ETA: 4:47 - loss: 0.0255 - acc: 0.9844
  7/400 [..............................] - ETA: 43s - loss: 0.0093 - acc: 0.9955 
 13/400 [..............................] - ETA: 24s - loss: 0.0105 - acc: 0.9964
…
394/400 [============================>.] - ETA: 0s - loss: 0.0073 - acc: 0.9972
400/400 [==============================] - 4s 10ms/step - loss: 0.0072 - acc: 0.9972 - val_loss: 0.0568 - val_acc: 0.9859
conv2d_1
conv2d_2
conv2d_3
conv2d_4
conv2d_5
pruning up to  20 % of the original model weights
Deleting 2/53 channels from layer: conv2d_3
Deleting 1/58 channels from layer: conv2d_4
Deleting 1/52 channels from layer: conv2d_5
_________________________________________________________________
Layer (type)                 Output Shape              Param #   
=================================================================
conv2d_1_input (InputLayer)  (None, 20, 20, 3)         0         
_________________________________________________________________
conv2d_1 (Conv2D)            (None, 18, 18, 15)        420       
_________________________________________________________________
batch_normalization_1 (Batch (None, 18, 18, 15)        60        
_________________________________________________________________
activation_1 (Activation)    (None, 18, 18, 15)        0         
_________________________________________________________________
conv2d_2 (Conv2D)            (None, 16, 16, 26)        3536      
_________________________________________________________________
batch_normalization_2 (Batch (None, 16, 16, 26)        104       
_________________________________________________________________
activation_2 (Activation)    (None, 16, 16, 26)        0         
_________________________________________________________________
conv2d_3 (Conv2D)            (None, 14, 14, 51)        11985     
_________________________________________________________________
batch_normalization_3 (Batch (None, 14, 14, 51)        204       
_________________________________________________________________
activation_3 (Activation)    (None, 14, 14, 51)        0         
_________________________________________________________________
conv2d_4 (Conv2D)            (None, 12, 12, 57)        26220     
_________________________________________________________________
batch_normalization_4 (Batch (None, 12, 12, 57)        228       
_________________________________________________________________
activation_4 (Activation)    (None, 12, 12, 57)        0         
_________________________________________________________________
conv2d_5 (Conv2D)            (None, 10, 10, 51)        26214     
_________________________________________________________________
batch_normalization_5 (Batch (None, 10, 10, 51)        204       
_________________________________________________________________
activation_5 (Activation)    (None, 10, 10, 51)        0         
_________________________________________________________________
flatten_1 (Flatten)          (None, 5100)              0         
_________________________________________________________________
dropout_1 (Dropout)          (None, 5100)              0         
_________________________________________________________________
dense_1 (Dense)              (None, 1)                 5101      
=================================================================
Total params: 74,276
Trainable params: 73,876
Non-trainable params: 400
_________________________________________________________________
None
Epoch 1/5

  1/400 [..............................] - ETA: 5:02 - loss: 0.0029 - acc: 1.0000
  7/400 [..............................] - ETA: 45s - loss: 0.0100 - acc: 0.9978 
 13/400 [..............................] - ETA: 25s - loss: 0.0216 - acc: 0.9928
…
397/400 [============================>.] - ETA: 0s - loss: 0.0052 - acc: 0.9983
400/400 [==============================] - 4s 10ms/step - loss: 0.0052 - acc: 0.9983 - val_loss: 0.0533 - val_acc: 0.9864
conv2d_1
conv2d_2
conv2d_3
conv2d_4
conv2d_5
pruning up to  22 % of the original model weights
Deleting 3/26 channels from layer: conv2d_2
Deleting 1/57 channels from layer: conv2d_4
_________________________________________________________________
Layer (type)                 Output Shape              Param #   
=================================================================
conv2d_1_input (InputLayer)  (None, 20, 20, 3)         0         
_________________________________________________________________
conv2d_1 (Conv2D)            (None, 18, 18, 15)        420       
_________________________________________________________________
batch_normalization_1 (Batch (None, 18, 18, 15)        60        
_________________________________________________________________
activation_1 (Activation)    (None, 18, 18, 15)        0         
_________________________________________________________________
conv2d_2 (Conv2D)            (None, 16, 16, 23)        3128      
_________________________________________________________________
batch_normalization_2 (Batch (None, 16, 16, 23)        92        
_________________________________________________________________
activation_2 (Activation)    (None, 16, 16, 23)        0         
_________________________________________________________________
conv2d_3 (Conv2D)            (None, 14, 14, 51)        10608     
_________________________________________________________________
batch_normalization_3 (Batch (None, 14, 14, 51)        204       
_________________________________________________________________
activation_3 (Activation)    (None, 14, 14, 51)        0         
_________________________________________________________________
conv2d_4 (Conv2D)            (None, 12, 12, 56)        25760     
_________________________________________________________________
batch_normalization_4 (Batch (None, 12, 12, 56)        224       
_________________________________________________________________
activation_4 (Activation)    (None, 12, 12, 56)        0         
_________________________________________________________________
conv2d_5 (Conv2D)            (None, 10, 10, 51)        25755     
_________________________________________________________________
batch_normalization_5 (Batch (None, 10, 10, 51)        204       
_________________________________________________________________
activation_5 (Activation)    (None, 10, 10, 51)        0         
_________________________________________________________________
flatten_1 (Flatten)          (None, 5100)              0         
_________________________________________________________________
dropout_1 (Dropout)          (None, 5100)              0         
_________________________________________________________________
dense_1 (Dense)              (None, 1)                 5101      
=================================================================
Total params: 71,556
Trainable params: 71,164
Non-trainable params: 392
_________________________________________________________________
None
Epoch 1/5

  1/400 [..............................] - ETA: 5:08 - loss: 0.1178 - acc: 0.9688
  7/400 [..............................] - ETA: 46s - loss: 0.0310 - acc: 0.9933 
 13/400 [..............................] - ETA: 26s - loss: 0.0245 - acc: 0.9940
…
400/400 [==============================] - 4s 10ms/step - loss: 0.0068 - acc: 0.9978 - val_loss: 0.0590 - val_acc: 0.9833
conv2d_1
conv2d_2
conv2d_3
conv2d_4
conv2d_5
pruning up to  24 % of the original model weights
Deleting 1/15 channels from layer: conv2d_1
Deleting 1/23 channels from layer: conv2d_2
Deleting 1/51 channels from layer: conv2d_3
Deleting 1/56 channels from layer: conv2d_4
_________________________________________________________________
Layer (type)                 Output Shape              Param #   
=================================================================
conv2d_1_input (InputLayer)  (None, 20, 20, 3)         0         
_________________________________________________________________
conv2d_1 (Conv2D)            (None, 18, 18, 14)        392       
_________________________________________________________________
batch_normalization_1 (Batch (None, 18, 18, 14)        56        
_________________________________________________________________
activation_1 (Activation)    (None, 18, 18, 14)        0         
_________________________________________________________________
conv2d_2 (Conv2D)            (None, 16, 16, 22)        2794      
_________________________________________________________________
batch_normalization_2 (Batch (None, 16, 16, 22)        88        
_________________________________________________________________
activation_2 (Activation)    (None, 16, 16, 22)        0         
_________________________________________________________________
conv2d_3 (Conv2D)            (None, 14, 14, 50)        9950      
_________________________________________________________________
batch_normalization_3 (Batch (None, 14, 14, 50)        200       
_________________________________________________________________
activation_3 (Activation)    (None, 14, 14, 50)        0         
_________________________________________________________________
conv2d_4 (Conv2D)            (None, 12, 12, 55)        24805     
_________________________________________________________________
batch_normalization_4 (Batch (None, 12, 12, 55)        220       
_________________________________________________________________
activation_4 (Activation)    (None, 12, 12, 55)        0         
_________________________________________________________________
conv2d_5 (Conv2D)            (None, 10, 10, 51)        25296     
_________________________________________________________________
batch_normalization_5 (Batch (None, 10, 10, 51)        204       
_________________________________________________________________
activation_5 (Activation)    (None, 10, 10, 51)        0         
_________________________________________________________________
flatten_1 (Flatten)          (None, 5100)              0         
_________________________________________________________________
dropout_1 (Dropout)          (None, 5100)              0         
_________________________________________________________________
dense_1 (Dense)              (None, 1)                 5101      
=================================================================
Total params: 69,106
Trainable params: 68,722
Non-trainable params: 384
_________________________________________________________________
None
Epoch 1/5

  1/400 [..............................] - ETA: 5:05 - loss: 0.3498 - acc: 0.9375
  7/400 [..............................] - ETA: 46s - loss: 0.0654 - acc: 0.9821 
 13/400 [..............................] - ETA: 26s - loss: 0.0554 - acc: 0.9832
…
400/400 [==============================] - 4s 10ms/step - loss: 0.0064 - acc: 0.9979 - val_loss: 0.0905 - val_acc: 0.9745
conv2d_1
conv2d_2
conv2d_3
conv2d_4
conv2d_5
pruning up to  26 % of the original model weights
Deleting 1/14 channels from layer: conv2d_1
Deleting 1/22 channels from layer: conv2d_2
Deleting 1/50 channels from layer: conv2d_3
Deleting 1/55 channels from layer: conv2d_4
_________________________________________________________________
Layer (type)                 Output Shape              Param #   
=================================================================
conv2d_1_input (InputLayer)  (None, 20, 20, 3)         0         
_________________________________________________________________
conv2d_1 (Conv2D)            (None, 18, 18, 13)        364       
_________________________________________________________________
batch_normalization_1 (Batch (None, 18, 18, 13)        52        
_________________________________________________________________
activation_1 (Activation)    (None, 18, 18, 13)        0         
_________________________________________________________________
conv2d_2 (Conv2D)            (None, 16, 16, 21)        2478      
_________________________________________________________________
batch_normalization_2 (Batch (None, 16, 16, 21)        84        
_________________________________________________________________
activation_2 (Activation)    (None, 16, 16, 21)        0         
_________________________________________________________________
conv2d_3 (Conv2D)            (None, 14, 14, 49)        9310      
_________________________________________________________________
batch_normalization_3 (Batch (None, 14, 14, 49)        196       
_________________________________________________________________
activation_3 (Activation)    (None, 14, 14, 49)        0         
_________________________________________________________________
conv2d_4 (Conv2D)            (None, 12, 12, 54)        23868     
_________________________________________________________________
batch_normalization_4 (Batch (None, 12, 12, 54)        216       
_________________________________________________________________
activation_4 (Activation)    (None, 12, 12, 54)        0         
_________________________________________________________________
conv2d_5 (Conv2D)            (None, 10, 10, 51)        24837     
_________________________________________________________________
batch_normalization_5 (Batch (None, 10, 10, 51)        204       
_________________________________________________________________
activation_5 (Activation)    (None, 10, 10, 51)        0         
_________________________________________________________________
flatten_1 (Flatten)          (None, 5100)              0         
_________________________________________________________________
dropout_1 (Dropout)          (None, 5100)              0         
_________________________________________________________________
dense_1 (Dense)              (None, 1)                 5101      
=================================================================
Total params: 66,710
Trainable params: 66,334
Non-trainable params: 376
_________________________________________________________________
None
Epoch 1/5

  1/400 [..............................] - ETA: 5:02 - loss: 0.1435 - acc: 0.9844
  7/400 [..............................] - ETA: 45s - loss: 0.0687 - acc: 0.9844 
 13/400 [..............................] - ETA: 25s - loss: 0.0504 - acc: 0.9880
…
397/400 [============================>.] - ETA: 0s - loss: 0.0053 - acc: 0.9984
400/400 [==============================] - 4s 10ms/step - loss: 0.0054 - acc: 0.9984 - val_loss: 0.0597 - val_acc: 0.9847
conv2d_1
conv2d_2
conv2d_3
conv2d_4
conv2d_5
pruning up to  28 % of the original model weights
Deleting 1/21 channels from layer: conv2d_2
Deleting 2/49 channels from layer: conv2d_3
Deleting 1/54 channels from layer: conv2d_4
_________________________________________________________________
Layer (type)                 Output Shape              Param #   
=================================================================
conv2d_1_input (InputLayer)  (None, 20, 20, 3)         0         
_________________________________________________________________
conv2d_1 (Conv2D)            (None, 18, 18, 13)        364       
_________________________________________________________________
batch_normalization_1 (Batch (None, 18, 18, 13)        52        
_________________________________________________________________
activation_1 (Activation)    (None, 18, 18, 13)        0         
_________________________________________________________________
conv2d_2 (Conv2D)            (None, 16, 16, 20)        2360      
_________________________________________________________________
batch_normalization_2 (Batch (None, 16, 16, 20)        80        
_________________________________________________________________
activation_2 (Activation)    (None, 16, 16, 20)        0         
_________________________________________________________________
conv2d_3 (Conv2D)            (None, 14, 14, 47)        8507      
_________________________________________________________________
batch_normalization_3 (Batch (None, 14, 14, 47)        188       
_________________________________________________________________
activation_3 (Activation)    (None, 14, 14, 47)        0         
_________________________________________________________________
conv2d_4 (Conv2D)            (None, 12, 12, 53)        22472     
_________________________________________________________________
batch_normalization_4 (Batch (None, 12, 12, 53)        212       
_________________________________________________________________
activation_4 (Activation)    (None, 12, 12, 53)        0         
_________________________________________________________________
conv2d_5 (Conv2D)            (None, 10, 10, 51)        24378     
_________________________________________________________________
batch_normalization_5 (Batch (None, 10, 10, 51)        204       
_________________________________________________________________
activation_5 (Activation)    (None, 10, 10, 51)        0         
_________________________________________________________________
flatten_1 (Flatten)          (None, 5100)              0         
_________________________________________________________________
dropout_1 (Dropout)          (None, 5100)              0         
_________________________________________________________________
dense_1 (Dense)              (None, 1)                 5101      
=================================================================
Total params: 63,918
Trainable params: 63,550
Non-trainable params: 368
_________________________________________________________________
None
Epoch 1/5

  1/400 [..............................] - ETA: 4:55 - loss: 0.0693 - acc: 0.9844
  7/400 [..............................] - ETA: 44s - loss: 0.0589 - acc: 0.9866 
 13/400 [..............................] - ETA: 25s - loss: 0.0412 - acc: 0.9904
…
397/400 [============================>.] - ETA: 0s - loss: 0.0055 - acc: 0.9983
400/400 [==============================] - 4s 10ms/step - loss: 0.0055 - acc: 0.9983 - val_loss: 0.0540 - val_acc: 0.9858
conv2d_1
conv2d_2
conv2d_3
conv2d_4
conv2d_5
pruning up to  30 % of the original model weights
Deleting 2/47 channels from layer: conv2d_3
Deleting 2/51 channels from layer: conv2d_5
_________________________________________________________________
Layer (type)                 Output Shape              Param #   
=================================================================
conv2d_1_input (InputLayer)  (None, 20, 20, 3)         0         
_________________________________________________________________
conv2d_1 (Conv2D)            (None, 18, 18, 13)        364       
_________________________________________________________________
batch_normalization_1 (Batch (None, 18, 18, 13)        52        
_________________________________________________________________
activation_1 (Activation)    (None, 18, 18, 13)        0         
_________________________________________________________________
conv2d_2 (Conv2D)            (None, 16, 16, 20)        2360      
_________________________________________________________________
batch_normalization_2 (Batch (None, 16, 16, 20)        80        
_________________________________________________________________
activation_2 (Activation)    (None, 16, 16, 20)        0         
_________________________________________________________________
conv2d_3 (Conv2D)            (None, 14, 14, 45)        8145      
_________________________________________________________________
batch_normalization_3 (Batch (None, 14, 14, 45)        180       
_________________________________________________________________
activation_3 (Activation)    (None, 14, 14, 45)        0         
_________________________________________________________________
conv2d_4 (Conv2D)            (None, 12, 12, 53)        21518     
_________________________________________________________________
batch_normalization_4 (Batch (None, 12, 12, 53)        212       
_________________________________________________________________
activation_4 (Activation)    (None, 12, 12, 53)        0         
_________________________________________________________________
conv2d_5 (Conv2D)            (None, 10, 10, 49)        23422     
_________________________________________________________________
batch_normalization_5 (Batch (None, 10, 10, 49)        196       
_________________________________________________________________
activation_5 (Activation)    (None, 10, 10, 49)        0         
_________________________________________________________________
flatten_1 (Flatten)          (None, 4900)              0         
_________________________________________________________________
dropout_1 (Dropout)          (None, 4900)              0         
_________________________________________________________________
dense_1 (Dense)              (None, 1)                 4901      
=================================================================
Total params: 61,430
Trainable params: 61,070
Non-trainable params: 360
_________________________________________________________________
None
Epoch 1/5

  1/400 [..............................] - ETA: 4:56 - loss: 0.0067 - acc: 1.0000
  7/400 [..............................] - ETA: 44s - loss: 0.0118 - acc: 0.9933 
 13/400 [..............................] - ETA: 25s - loss: 0.0095 - acc: 0.9952
…
395/400 [============================>.] - ETA: 0s - loss: 0.0049 - acc: 0.9983
400/400 [==============================] - 4s 10ms/step - loss: 0.0049 - acc: 0.9984 - val_loss: 0.0555 - val_acc: 0.9853
conv2d_1
conv2d_2
conv2d_3
conv2d_4
conv2d_5
pruning up to  32 % of the original model weights
Deleting 3/45 channels from layer: conv2d_3
Deleting 1/53 channels from layer: conv2d_4
_________________________________________________________________
Layer (type)                 Output Shape              Param #   
=================================================================
conv2d_1_input (InputLayer)  (None, 20, 20, 3)         0         
_________________________________________________________________
conv2d_1 (Conv2D)            (None, 18, 18, 13)        364       
_________________________________________________________________
batch_normalization_1 (Batch (None, 18, 18, 13)        52        
_________________________________________________________________
activation_1 (Activation)    (None, 18, 18, 13)        0         
_________________________________________________________________
conv2d_2 (Conv2D)            (None, 16, 16, 20)        2360      
_________________________________________________________________
batch_normalization_2 (Batch (None, 16, 16, 20)        80        
_________________________________________________________________
activation_2 (Activation)    (None, 16, 16, 20)        0         
_________________________________________________________________
conv2d_3 (Conv2D)            (None, 14, 14, 42)        7602      
_________________________________________________________________
batch_normalization_3 (Batch (None, 14, 14, 42)        168       
_________________________________________________________________
activation_3 (Activation)    (None, 14, 14, 42)        0         
_________________________________________________________________
conv2d_4 (Conv2D)            (None, 12, 12, 52)        19708     
_________________________________________________________________
batch_normalization_4 (Batch (None, 12, 12, 52)        208       
_________________________________________________________________
activation_4 (Activation)    (None, 12, 12, 52)        0         
_________________________________________________________________
conv2d_5 (Conv2D)            (None, 10, 10, 49)        22981     
_________________________________________________________________
batch_normalization_5 (Batch (None, 10, 10, 49)        196       
_________________________________________________________________
activation_5 (Activation)    (None, 10, 10, 49)        0         
_________________________________________________________________
flatten_1 (Flatten)          (None, 4900)              0         
_________________________________________________________________
dropout_1 (Dropout)          (None, 4900)              0         
_________________________________________________________________
dense_1 (Dense)              (None, 1)                 4901      
=================================================================
Total params: 58,620
Trainable params: 58,268
Non-trainable params: 352
_________________________________________________________________
None
Epoch 1/5

  1/400 [..............................] - ETA: 4:56 - loss: 0.0460 - acc: 0.9844
  7/400 [..............................] - ETA: 44s - loss: 0.0097 - acc: 0.9978 
 13/400 [..............................] - ETA: 25s - loss: 0.0158 - acc: 0.9940
…
395/400 [============================>.] - ETA: 0s - loss: 0.0056 - acc: 0.9981
400/400 [==============================] - 4s 10ms/step - loss: 0.0056 - acc: 0.9982 - val_loss: 0.0550 - val_acc: 0.9864
conv2d_1
conv2d_2
conv2d_3
conv2d_4
conv2d_5
pruning up to  34 % of the original model weights
Deleting 1/20 channels from layer: conv2d_2
Deleting 1/42 channels from layer: conv2d_3
Deleting 2/49 channels from layer: conv2d_5
_________________________________________________________________
Layer (type)                 Output Shape              Param #   
=================================================================
conv2d_1_input (InputLayer)  (None, 20, 20, 3)         0         
_________________________________________________________________
conv2d_1 (Conv2D)            (None, 18, 18, 13)        364       
_________________________________________________________________
batch_normalization_1 (Batch (None, 18, 18, 13)        52        
_________________________________________________________________
activation_1 (Activation)    (None, 18, 18, 13)        0         
_________________________________________________________________
conv2d_2 (Conv2D)            (None, 16, 16, 19)        2242      
_________________________________________________________________
batch_normalization_2 (Batch (None, 16, 16, 19)        76        
_________________________________________________________________
activation_2 (Activation)    (None, 16, 16, 19)        0         
_________________________________________________________________
conv2d_3 (Conv2D)            (None, 14, 14, 41)        7052      
_________________________________________________________________
batch_normalization_3 (Batch (None, 14, 14, 41)        164       
_________________________________________________________________
activation_3 (Activation)    (None, 14, 14, 41)        0         
_________________________________________________________________
conv2d_4 (Conv2D)            (None, 12, 12, 52)        19240     
_________________________________________________________________
batch_normalization_4 (Batch (None, 12, 12, 52)        208       
_________________________________________________________________
activation_4 (Activation)    (None, 12, 12, 52)        0         
_________________________________________________________________
conv2d_5 (Conv2D)            (None, 10, 10, 47)        22043     
_________________________________________________________________
batch_normalization_5 (Batch (None, 10, 10, 47)        188       
_________________________________________________________________
activation_5 (Activation)    (None, 10, 10, 47)        0         
_________________________________________________________________
flatten_1 (Flatten)          (None, 4700)              0         
_________________________________________________________________
dropout_1 (Dropout)          (None, 4700)              0         
_________________________________________________________________
dense_1 (Dense)              (None, 1)                 4701      
=================================================================
Total params: 56,330
Trainable params: 55,986
Non-trainable params: 344
_________________________________________________________________
None
Epoch 1/5

  1/400 [..............................] - ETA: 5:11 - loss: 0.0074 - acc: 1.0000
  7/400 [..............................] - ETA: 46s - loss: 0.0113 - acc: 0.9955 
 13/400 [..............................] - ETA: 26s - loss: 0.0158 - acc: 0.9940
…
397/400 [============================>.] - ETA: 0s - loss: 0.0053 - acc: 0.9982
400/400 [==============================] - 4s 10ms/step - loss: 0.0053 - acc: 0.9982 - val_loss: 0.0493 - val_acc: 0.9873
conv2d_1
conv2d_2
conv2d_3
conv2d_4
conv2d_5
pruning up to  36 % of the original model weights
Deleting 1/52 channels from layer: conv2d_4
Deleting 3/47 channels from layer: conv2d_5
_________________________________________________________________
Layer (type)                 Output Shape              Param #   
=================================================================
conv2d_1_input (InputLayer)  (None, 20, 20, 3)         0         
_________________________________________________________________
conv2d_1 (Conv2D)            (None, 18, 18, 13)        364       
_________________________________________________________________
batch_normalization_1 (Batch (None, 18, 18, 13)        52        
_________________________________________________________________
activation_1 (Activation)    (None, 18, 18, 13)        0         
_________________________________________________________________
conv2d_2 (Conv2D)            (None, 16, 16, 19)        2242      
_________________________________________________________________
batch_normalization_2 (Batch (None, 16, 16, 19)        76        
_________________________________________________________________
activation_2 (Activation)    (None, 16, 16, 19)        0         
_________________________________________________________________
conv2d_3 (Conv2D)            (None, 14, 14, 41)        7052      
_________________________________________________________________
batch_normalization_3 (Batch (None, 14, 14, 41)        164       
_________________________________________________________________
activation_3 (Activation)    (None, 14, 14, 41)        0         
_________________________________________________________________
conv2d_4 (Conv2D)            (None, 12, 12, 51)        18870     
_________________________________________________________________
batch_normalization_4 (Batch (None, 12, 12, 51)        204       
_________________________________________________________________
activation_4 (Activation)    (None, 12, 12, 51)        0         
_________________________________________________________________
conv2d_5 (Conv2D)            (None, 10, 10, 44)        20240     
_________________________________________________________________
batch_normalization_5 (Batch (None, 10, 10, 44)        176       
_________________________________________________________________
activation_5 (Activation)    (None, 10, 10, 44)        0         
_________________________________________________________________
flatten_1 (Flatten)          (None, 4400)              0         
_________________________________________________________________
dropout_1 (Dropout)          (None, 4400)              0         
_________________________________________________________________
dense_1 (Dense)              (None, 1)                 4401      
=================================================================
Total params: 53,841
Trainable params: 53,505
Non-trainable params: 336
_________________________________________________________________
None
Epoch 1/5

  1/400 [..............................] - ETA: 4:47 - loss: 0.0011 - acc: 1.0000
  7/400 [..............................] - ETA: 43s - loss: 0.0024 - acc: 1.0000 
 13/400 [..............................] - ETA: 24s - loss: 0.0052 - acc: 0.9988
…
397/400 [============================>.] - ETA: 0s - loss: 0.0059 - acc: 0.9980
400/400 [==============================] - 4s 9ms/step - loss: 0.0059 - acc: 0.9980 - val_loss: 0.0476 - val_acc: 0.9873
conv2d_1
conv2d_2
conv2d_3
conv2d_4
conv2d_5
pruning up to  38 % of the original model weights
Deleting 3/51 channels from layer: conv2d_4
Deleting 1/44 channels from layer: conv2d_5
_________________________________________________________________
Layer (type)                 Output Shape              Param #   
=================================================================
conv2d_1_input (InputLayer)  (None, 20, 20, 3)         0         
_________________________________________________________________
conv2d_1 (Conv2D)            (None, 18, 18, 13)        364       
_________________________________________________________________
batch_normalization_1 (Batch (None, 18, 18, 13)        52        
_________________________________________________________________
activation_1 (Activation)    (None, 18, 18, 13)        0         
_________________________________________________________________
conv2d_2 (Conv2D)            (None, 16, 16, 19)        2242      
_________________________________________________________________
batch_normalization_2 (Batch (None, 16, 16, 19)        76        
_________________________________________________________________
activation_2 (Activation)    (None, 16, 16, 19)        0         
_________________________________________________________________
conv2d_3 (Conv2D)            (None, 14, 14, 41)        7052      
_________________________________________________________________
batch_normalization_3 (Batch (None, 14, 14, 41)        164       
_________________________________________________________________
activation_3 (Activation)    (None, 14, 14, 41)        0         
_________________________________________________________________
conv2d_4 (Conv2D)            (None, 12, 12, 48)        17760     
_________________________________________________________________
batch_normalization_4 (Batch (None, 12, 12, 48)        192       
_________________________________________________________________
activation_4 (Activation)    (None, 12, 12, 48)        0         
_________________________________________________________________
conv2d_5 (Conv2D)            (None, 10, 10, 43)        18619     
_________________________________________________________________
batch_normalization_5 (Batch (None, 10, 10, 43)        172       
_________________________________________________________________
activation_5 (Activation)    (None, 10, 10, 43)        0         
_________________________________________________________________
flatten_1 (Flatten)          (None, 4300)              0         
_________________________________________________________________
dropout_1 (Dropout)          (None, 4300)              0         
_________________________________________________________________
dense_1 (Dense)              (None, 1)                 4301      
=================================================================
Total params: 50,994
Trainable params: 50,666
Non-trainable params: 328
_________________________________________________________________
None
Epoch 1/5

  1/400 [..............................] - ETA: 4:56 - loss: 0.0015 - acc: 1.0000
  7/400 [..............................] - ETA: 44s - loss: 0.0047 - acc: 0.9978 
 13/400 [..............................] - ETA: 25s - loss: 0.0047 - acc: 0.9976
…
397/400 [============================>.] - ETA: 0s - loss: 0.0056 - acc: 0.9983
400/400 [==============================] - 4s 10ms/step - loss: 0.0056 - acc: 0.9983 - val_loss: 0.0481 - val_acc: 0.9877
conv2d_1
conv2d_2
conv2d_3
conv2d_4
conv2d_5
pruning up to  40 % of the original model weights
Deleting 1/41 channels from layer: conv2d_3
Deleting 1/48 channels from layer: conv2d_4
Deleting 2/43 channels from layer: conv2d_5
_________________________________________________________________
Layer (type)                 Output Shape              Param #   
=================================================================
conv2d_1_input (InputLayer)  (None, 20, 20, 3)         0         
_________________________________________________________________
conv2d_1 (Conv2D)            (None, 18, 18, 13)        364       
_________________________________________________________________
batch_normalization_1 (Batch (None, 18, 18, 13)        52        
_________________________________________________________________
activation_1 (Activation)    (None, 18, 18, 13)        0         
_________________________________________________________________
conv2d_2 (Conv2D)            (None, 16, 16, 19)        2242      
_________________________________________________________________
batch_normalization_2 (Batch (None, 16, 16, 19)        76        
_________________________________________________________________
activation_2 (Activation)    (None, 16, 16, 19)        0         
_________________________________________________________________
conv2d_3 (Conv2D)            (None, 14, 14, 40)        6880      
_________________________________________________________________
batch_normalization_3 (Batch (None, 14, 14, 40)        160       
_________________________________________________________________
activation_3 (Activation)    (None, 14, 14, 40)        0         
_________________________________________________________________
conv2d_4 (Conv2D)            (None, 12, 12, 47)        16967     
_________________________________________________________________
batch_normalization_4 (Batch (None, 12, 12, 47)        188       
_________________________________________________________________
activation_4 (Activation)    (None, 12, 12, 47)        0         
_________________________________________________________________
conv2d_5 (Conv2D)            (None, 10, 10, 41)        17384     
_________________________________________________________________
batch_normalization_5 (Batch (None, 10, 10, 41)        164       
_________________________________________________________________
activation_5 (Activation)    (None, 10, 10, 41)        0         
_________________________________________________________________
flatten_1 (Flatten)          (None, 4100)              0         
_________________________________________________________________
dropout_1 (Dropout)          (None, 4100)              0         
_________________________________________________________________
dense_1 (Dense)              (None, 1)                 4101      
=================================================================
Total params: 48,578
Trainable params: 48,258
Non-trainable params: 320
_________________________________________________________________
None
Epoch 1/5

  1/400 [..............................] - ETA: 4:53 - loss: 0.0396 - acc: 0.9844
  7/400 [..............................] - ETA: 44s - loss: 0.0088 - acc: 0.9978 
 13/400 [..............................] - ETA: 25s - loss: 0.0054 - acc: 0.9988
…
397/400 [============================>.] - ETA: 0s - loss: 0.0062 - acc: 0.9976
400/400 [==============================] - 4s 10ms/step - loss: 0.0064 - acc: 0.9976 - val_loss: 0.0458 - val_acc: 0.9884
conv2d_1
conv2d_2
conv2d_3
conv2d_4
conv2d_5
pruning up to  42 % of the original model weights
Deleting 1/19 channels from layer: conv2d_2
Deleting 3/47 channels from layer: conv2d_4
_________________________________________________________________
Layer (type)                 Output Shape              Param #   
=================================================================
conv2d_1_input (InputLayer)  (None, 20, 20, 3)         0         
_________________________________________________________________
conv2d_1 (Conv2D)            (None, 18, 18, 13)        364       
_________________________________________________________________
batch_normalization_1 (Batch (None, 18, 18, 13)        52        
_________________________________________________________________
activation_1 (Activation)    (None, 18, 18, 13)        0         
_________________________________________________________________
conv2d_2 (Conv2D)            (None, 16, 16, 18)        2124      
_________________________________________________________________
batch_normalization_2 (Batch (None, 16, 16, 18)        72        
_________________________________________________________________
activation_2 (Activation)    (None, 16, 16, 18)        0         
_________________________________________________________________
conv2d_3 (Conv2D)            (None, 14, 14, 40)        6520      
_________________________________________________________________
batch_normalization_3 (Batch (None, 14, 14, 40)        160       
_________________________________________________________________
activation_3 (Activation)    (None, 14, 14, 40)        0         
_________________________________________________________________
conv2d_4 (Conv2D)            (None, 12, 12, 44)        15884     
_________________________________________________________________
batch_normalization_4 (Batch (None, 12, 12, 44)        176       
_________________________________________________________________
activation_4 (Activation)    (None, 12, 12, 44)        0         
_________________________________________________________________
conv2d_5 (Conv2D)            (None, 10, 10, 41)        16277     
_________________________________________________________________
batch_normalization_5 (Batch (None, 10, 10, 41)        164       
_________________________________________________________________
activation_5 (Activation)    (None, 10, 10, 41)        0         
_________________________________________________________________
flatten_1 (Flatten)          (None, 4100)              0         
_________________________________________________________________
dropout_1 (Dropout)          (None, 4100)              0         
_________________________________________________________________
dense_1 (Dense)              (None, 1)                 4101      
=================================================================
Total params: 45,894
Trainable params: 45,582
Non-trainable params: 312
_________________________________________________________________
None
Epoch 1/5

  1/400 [..............................] - ETA: 4:54 - loss: 0.0442 - acc: 0.9844
  7/400 [..............................] - ETA: 44s - loss: 0.0323 - acc: 0.9911 
 13/400 [..............................] - ETA: 25s - loss: 0.0304 - acc: 0.9916
…
397/400 [============================>.] - ETA: 0s - loss: 0.0048 - acc: 0.9983
400/400 [==============================] - 4s 10ms/step - loss: 0.0048 - acc: 0.9984 - val_loss: 0.0510 - val_acc: 0.9869
conv2d_1
conv2d_2
conv2d_3
conv2d_4
conv2d_5
pruning up to  44 % of the original model weights
Deleting 2/40 channels from layer: conv2d_3
Deleting 1/44 channels from layer: conv2d_4
Deleting 1/41 channels from layer: conv2d_5
_________________________________________________________________
Layer (type)                 Output Shape              Param #   
=================================================================
conv2d_1_input (InputLayer)  (None, 20, 20, 3)         0         
_________________________________________________________________
conv2d_1 (Conv2D)            (None, 18, 18, 13)        364       
_________________________________________________________________
batch_normalization_1 (Batch (None, 18, 18, 13)        52        
_________________________________________________________________
activation_1 (Activation)    (None, 18, 18, 13)        0         
_________________________________________________________________
conv2d_2 (Conv2D)            (None, 16, 16, 18)        2124      
_________________________________________________________________
batch_normalization_2 (Batch (None, 16, 16, 18)        72        
_________________________________________________________________
activation_2 (Activation)    (None, 16, 16, 18)        0         
_________________________________________________________________
conv2d_3 (Conv2D)            (None, 14, 14, 38)        6194      
_________________________________________________________________
batch_normalization_3 (Batch (None, 14, 14, 38)        152       
_________________________________________________________________
activation_3 (Activation)    (None, 14, 14, 38)        0         
_________________________________________________________________
conv2d_4 (Conv2D)            (None, 12, 12, 43)        14749     
_________________________________________________________________
batch_normalization_4 (Batch (None, 12, 12, 43)        172       
_________________________________________________________________
activation_4 (Activation)    (None, 12, 12, 43)        0         
_________________________________________________________________
conv2d_5 (Conv2D)            (None, 10, 10, 40)        15520     
_________________________________________________________________
batch_normalization_5 (Batch (None, 10, 10, 40)        160       
_________________________________________________________________
activation_5 (Activation)    (None, 10, 10, 40)        0         
_________________________________________________________________
flatten_1 (Flatten)          (None, 4000)              0         
_________________________________________________________________
dropout_1 (Dropout)          (None, 4000)              0         
_________________________________________________________________
dense_1 (Dense)              (None, 1)                 4001      
=================================================================
Total params: 43,560
Trainable params: 43,256
Non-trainable params: 304
_________________________________________________________________
None
Epoch 1/5

  1/400 [..............................] - ETA: 5:01 - loss: 0.0441 - acc: 0.9688
  6/400 [..............................] - ETA: 53s - loss: 0.0390 - acc: 0.9844 
 11/400 [..............................] - ETA: 30s - loss: 0.0284 - acc: 0.9872
…
400/400 [==============================] - 4s 10ms/step - loss: 0.0046 - acc: 0.9985 - val_loss: 0.0484 - val_acc: 0.9861
conv2d_1
conv2d_2
conv2d_3
conv2d_4
conv2d_5
pruning up to  46 % of the original model weights
Deleting 1/13 channels from layer: conv2d_1
Deleting 1/38 channels from layer: conv2d_3
Deleting 1/43 channels from layer: conv2d_4
Deleting 1/40 channels from layer: conv2d_5
_________________________________________________________________
Layer (type)                 Output Shape              Param #   
=================================================================
conv2d_1_input (InputLayer)  (None, 20, 20, 3)         0         
_________________________________________________________________
conv2d_1 (Conv2D)            (None, 18, 18, 12)        336       
_________________________________________________________________
batch_normalization_1 (Batch (None, 18, 18, 12)        48        
_________________________________________________________________
activation_1 (Activation)    (None, 18, 18, 12)        0         
_________________________________________________________________
conv2d_2 (Conv2D)            (None, 16, 16, 18)        1962      
_________________________________________________________________
batch_normalization_2 (Batch (None, 16, 16, 18)        72        
_________________________________________________________________
activation_2 (Activation)    (None, 16, 16, 18)        0         
_________________________________________________________________
conv2d_3 (Conv2D)            (None, 14, 14, 37)        6031      
_________________________________________________________________
batch_normalization_3 (Batch (None, 14, 14, 37)        148       
_________________________________________________________________
activation_3 (Activation)    (None, 14, 14, 37)        0         
_________________________________________________________________
conv2d_4 (Conv2D)            (None, 12, 12, 42)        14028     
_________________________________________________________________
batch_normalization_4 (Batch (None, 12, 12, 42)        168       
_________________________________________________________________
activation_4 (Activation)    (None, 12, 12, 42)        0         
_________________________________________________________________
conv2d_5 (Conv2D)            (None, 10, 10, 39)        14781     
_________________________________________________________________
batch_normalization_5 (Batch (None, 10, 10, 39)        156       
_________________________________________________________________
activation_5 (Activation)    (None, 10, 10, 39)        0         
_________________________________________________________________
flatten_1 (Flatten)          (None, 3900)              0         
_________________________________________________________________
dropout_1 (Dropout)          (None, 3900)              0         
_________________________________________________________________
dense_1 (Dense)              (None, 1)                 3901      
=================================================================
Total params: 41,631
Trainable params: 41,335
Non-trainable params: 296
_________________________________________________________________
None
Epoch 1/5

  1/400 [..............................] - ETA: 5:04 - loss: 0.0146 - acc: 1.0000
  7/400 [..............................] - ETA: 46s - loss: 0.0165 - acc: 0.9955 
 13/400 [..............................] - ETA: 26s - loss: 0.0123 - acc: 0.9952
…
396/400 [============================>.] - ETA: 0s - loss: 0.0052 - acc: 0.9983
400/400 [==============================] - 4s 10ms/step - loss: 0.0053 - acc: 0.9983 - val_loss: 0.0514 - val_acc: 0.9866
conv2d_1
conv2d_2
conv2d_3
conv2d_4
conv2d_5
pruning up to  48 % of the original model weights
Deleting 1/12 channels from layer: conv2d_1
Deleting 1/42 channels from layer: conv2d_4
Deleting 2/39 channels from layer: conv2d_5
_________________________________________________________________
Layer (type)                 Output Shape              Param #   
=================================================================
conv2d_1_input (InputLayer)  (None, 20, 20, 3)         0         
_________________________________________________________________
conv2d_1 (Conv2D)            (None, 18, 18, 11)        308       
_________________________________________________________________
batch_normalization_1 (Batch (None, 18, 18, 11)        44        
_________________________________________________________________
activation_1 (Activation)    (None, 18, 18, 11)        0         
_________________________________________________________________
conv2d_2 (Conv2D)            (None, 16, 16, 18)        1800      
_________________________________________________________________
batch_normalization_2 (Batch (None, 16, 16, 18)        72        
_________________________________________________________________
activation_2 (Activation)    (None, 16, 16, 18)        0         
_________________________________________________________________
conv2d_3 (Conv2D)            (None, 14, 14, 37)        6031      
_________________________________________________________________
batch_normalization_3 (Batch (None, 14, 14, 37)        148       
_________________________________________________________________
activation_3 (Activation)    (None, 14, 14, 37)        0         
_________________________________________________________________
conv2d_4 (Conv2D)            (None, 12, 12, 41)        13694     
_________________________________________________________________
batch_normalization_4 (Batch (None, 12, 12, 41)        164       
_________________________________________________________________
activation_4 (Activation)    (None, 12, 12, 41)        0         
_________________________________________________________________
conv2d_5 (Conv2D)            (None, 10, 10, 37)        13690     
_________________________________________________________________
batch_normalization_5 (Batch (None, 10, 10, 37)        148       
_________________________________________________________________
activation_5 (Activation)    (None, 10, 10, 37)        0         
_________________________________________________________________
flatten_1 (Flatten)          (None, 3700)              0         
_________________________________________________________________
dropout_1 (Dropout)          (None, 3700)              0         
_________________________________________________________________
dense_1 (Dense)              (None, 1)                 3701      
=================================================================
Total params: 39,800
Trainable params: 39,512
Non-trainable params: 288
_________________________________________________________________
None
Epoch 1/5

  1/400 [..............................] - ETA: 4:56 - loss: 0.0851 - acc: 0.9844
  7/400 [..............................] - ETA: 44s - loss: 0.0292 - acc: 0.9911 
 13/400 [..............................] - ETA: 25s - loss: 0.0210 - acc: 0.9940
…
397/400 [============================>.] - ETA: 0s - loss: 0.0050 - acc: 0.9983
400/400 [==============================] - 4s 10ms/step - loss: 0.0050 - acc: 0.9982 - val_loss: 0.0645 - val_acc: 0.9841
conv2d_1
conv2d_2
conv2d_3
conv2d_4
conv2d_5
pruning up to  50 % of the original model weights
Deleting 1/37 channels from layer: conv2d_3
Deleting 3/41 channels from layer: conv2d_4
_________________________________________________________________
Layer (type)                 Output Shape              Param #   
=================================================================
conv2d_1_input (InputLayer)  (None, 20, 20, 3)         0         
_________________________________________________________________
conv2d_1 (Conv2D)            (None, 18, 18, 11)        308       
_________________________________________________________________
batch_normalization_1 (Batch (None, 18, 18, 11)        44        
_________________________________________________________________
activation_1 (Activation)    (None, 18, 18, 11)        0         
_________________________________________________________________
conv2d_2 (Conv2D)            (None, 16, 16, 18)        1800      
_________________________________________________________________
batch_normalization_2 (Batch (None, 16, 16, 18)        72        
_________________________________________________________________
activation_2 (Activation)    (None, 16, 16, 18)        0         
_________________________________________________________________
conv2d_3 (Conv2D)            (None, 14, 14, 36)        5868      
_________________________________________________________________
batch_normalization_3 (Batch (None, 14, 14, 36)        144       
_________________________________________________________________
activation_3 (Activation)    (None, 14, 14, 36)        0         
_________________________________________________________________
conv2d_4 (Conv2D)            (None, 12, 12, 38)        12350     
_________________________________________________________________
batch_normalization_4 (Batch (None, 12, 12, 38)        152       
_________________________________________________________________
activation_4 (Activation)    (None, 12, 12, 38)        0         
_________________________________________________________________
conv2d_5 (Conv2D)            (None, 10, 10, 37)        12691     
_________________________________________________________________
batch_normalization_5 (Batch (None, 10, 10, 37)        148       
_________________________________________________________________
activation_5 (Activation)    (None, 10, 10, 37)        0         
_________________________________________________________________
flatten_1 (Flatten)          (None, 3700)              0         
_________________________________________________________________
dropout_1 (Dropout)          (None, 3700)              0         
_________________________________________________________________
dense_1 (Dense)              (None, 1)                 3701      
=================================================================
Total params: 37,278
Trainable params: 36,998
Non-trainable params: 280
_________________________________________________________________
None
Epoch 1/5

  1/400 [..............................] - ETA: 4:55 - loss: 0.0250 - acc: 0.9844
  7/400 [..............................] - ETA: 44s - loss: 0.0384 - acc: 0.9866 
 13/400 [..............................] - ETA: 25s - loss: 0.0336 - acc: 0.9904
…
